{
  "nodes": [
    {
      "op": "null", 
      "name": "data", 
      "inputs": []
    }, 
    {
      "op": "null", 
      "name": "conv1_weight", 
      "attr": {
        "kernel": "(1, 7, 7)", 
        "no_bias": "True", 
        "num_filter": "64", 
        "pad": "(0, 3, 3)", 
        "stride": "(1, 2, 2)"
      }, 
      "inputs": []
    }, 
    {
      "op": "Convolution", 
      "name": "conv1", 
      "attr": {
        "kernel": "(1, 7, 7)", 
        "no_bias": "True", 
        "num_filter": "64", 
        "pad": "(0, 3, 3)", 
        "stride": "(1, 2, 2)"
      }, 
      "inputs": [[0, 0, 0], [1, 0, 0]]
    }, 
    {
      "op": "null", 
      "name": "bn_conv1_gamma", 
      "attr": {
        "eps": "1e-05", 
        "fix_gamma": "False"
      }, 
      "inputs": []
    }, 
    {
      "op": "null", 
      "name": "bn_conv1_beta", 
      "attr": {
        "eps": "1e-05", 
        "fix_gamma": "False"
      }, 
      "inputs": []
    }, 
    {
      "op": "null", 
      "name": "bn_conv1_moving_mean", 
      "attr": {
        "__init__": "[\"zero\", {}]", 
        "eps": "1e-05", 
        "fix_gamma": "False"
      }, 
      "inputs": []
    }, 
    {
      "op": "null", 
      "name": "bn_conv1_moving_var", 
      "attr": {
        "__init__": "[\"one\", {}]", 
        "eps": "1e-05", 
        "fix_gamma": "False"
      }, 
      "inputs": []
    }, 
    {
      "op": "BatchNorm", 
      "name": "bn_conv1", 
      "attr": {
        "eps": "1e-05", 
        "fix_gamma": "False"
      }, 
      "inputs": [[2, 0, 0], [3, 0, 0], [4, 0, 0], [5, 0, 1], [6, 0, 1]]
    }, 
    {
      "op": "Activation", 
      "name": "conv1_relu", 
      "attr": {"act_type": "relu"}, 
      "inputs": [[7, 0, 0]]
    }, 
    {
      "op": "Pooling", 
      "name": "pool1", 
      "attr": {
        "kernel": "(2, 3, 3)", 
        "pad": "(0, 0, 0)", 
        "pool_type": "max", 
        "pooling_convention": "full", 
        "stride": "(2, 2, 2)"
      }, 
      "inputs": [[8, 0, 0]]
    }, 
    {
      "op": "null", 
      "name": "res2a_branch1_weight", 
      "attr": {
        "kernel": "(1, 1, 1)", 
        "no_bias": "True", 
        "num_filter": "256", 
        "pad": "(0, 0, 0)", 
        "stride": "(1, 1, 1)"
      }, 
      "inputs": []
    }, 
    {
      "op": "Convolution", 
      "name": "res2a_branch1", 
      "attr": {
        "kernel": "(1, 1, 1)", 
        "no_bias": "True", 
        "num_filter": "256", 
        "pad": "(0, 0, 0)", 
        "stride": "(1, 1, 1)"
      }, 
      "inputs": [[9, 0, 0], [10, 0, 0]]
    }, 
    {
      "op": "null", 
      "name": "bn2a_branch1_gamma", 
      "attr": {
        "eps": "1e-05", 
        "fix_gamma": "False"
      }, 
      "inputs": []
    }, 
    {
      "op": "null", 
      "name": "bn2a_branch1_beta", 
      "attr": {
        "eps": "1e-05", 
        "fix_gamma": "False"
      }, 
      "inputs": []
    }, 
    {
      "op": "null", 
      "name": "bn2a_branch1_moving_mean", 
      "attr": {
        "__init__": "[\"zero\", {}]", 
        "eps": "1e-05", 
        "fix_gamma": "False"
      }, 
      "inputs": []
    }, 
    {
      "op": "null", 
      "name": "bn2a_branch1_moving_var", 
      "attr": {
        "__init__": "[\"one\", {}]", 
        "eps": "1e-05", 
        "fix_gamma": "False"
      }, 
      "inputs": []
    }, 
    {
      "op": "BatchNorm", 
      "name": "bn2a_branch1", 
      "attr": {
        "eps": "1e-05", 
        "fix_gamma": "False"
      }, 
      "inputs": [[11, 0, 0], [12, 0, 0], [13, 0, 0], [14, 0, 1], [15, 0, 1]]
    }, 
    {
      "op": "null", 
      "name": "res2a_branch2a_weight", 
      "attr": {
        "kernel": "(1, 1, 1)", 
        "no_bias": "True", 
        "num_filter": "64", 
        "pad": "(0, 0, 0)", 
        "stride": "(1, 1, 1)"
      }, 
      "inputs": []
    }, 
    {
      "op": "Convolution", 
      "name": "res2a_branch2a", 
      "attr": {
        "kernel": "(1, 1, 1)", 
        "no_bias": "True", 
        "num_filter": "64", 
        "pad": "(0, 0, 0)", 
        "stride": "(1, 1, 1)"
      }, 
      "inputs": [[9, 0, 0], [17, 0, 0]]
    }, 
    {
      "op": "null", 
      "name": "bn2a_branch2a_gamma", 
      "attr": {
        "eps": "1e-05", 
        "fix_gamma": "False"
      }, 
      "inputs": []
    }, 
    {
      "op": "null", 
      "name": "bn2a_branch2a_beta", 
      "attr": {
        "eps": "1e-05", 
        "fix_gamma": "False"
      }, 
      "inputs": []
    }, 
    {
      "op": "null", 
      "name": "bn2a_branch2a_moving_mean", 
      "attr": {
        "__init__": "[\"zero\", {}]", 
        "eps": "1e-05", 
        "fix_gamma": "False"
      }, 
      "inputs": []
    }, 
    {
      "op": "null", 
      "name": "bn2a_branch2a_moving_var", 
      "attr": {
        "__init__": "[\"one\", {}]", 
        "eps": "1e-05", 
        "fix_gamma": "False"
      }, 
      "inputs": []
    }, 
    {
      "op": "BatchNorm", 
      "name": "bn2a_branch2a", 
      "attr": {
        "eps": "1e-05", 
        "fix_gamma": "False"
      }, 
      "inputs": [[18, 0, 0], [19, 0, 0], [20, 0, 0], [21, 0, 1], [22, 0, 1]]
    }, 
    {
      "op": "Activation", 
      "name": "res2a_branch2a_relu", 
      "attr": {"act_type": "relu"}, 
      "inputs": [[23, 0, 0]]
    }, 
    {
      "op": "null", 
      "name": "res2a_branch2b_weight", 
      "attr": {
        "kernel": "(1, 3, 3)", 
        "no_bias": "True", 
        "num_filter": "64", 
        "pad": "(0, 1, 1)", 
        "stride": "(1, 1, 1)"
      }, 
      "inputs": []
    }, 
    {
      "op": "Convolution", 
      "name": "res2a_branch2b", 
      "attr": {
        "kernel": "(1, 3, 3)", 
        "no_bias": "True", 
        "num_filter": "64", 
        "pad": "(0, 1, 1)", 
        "stride": "(1, 1, 1)"
      }, 
      "inputs": [[24, 0, 0], [25, 0, 0]]
    }, 
    {
      "op": "null", 
      "name": "bn2a_branch2b_gamma", 
      "attr": {
        "eps": "1e-05", 
        "fix_gamma": "False"
      }, 
      "inputs": []
    }, 
    {
      "op": "null", 
      "name": "bn2a_branch2b_beta", 
      "attr": {
        "eps": "1e-05", 
        "fix_gamma": "False"
      }, 
      "inputs": []
    }, 
    {
      "op": "null", 
      "name": "bn2a_branch2b_moving_mean", 
      "attr": {
        "__init__": "[\"zero\", {}]", 
        "eps": "1e-05", 
        "fix_gamma": "False"
      }, 
      "inputs": []
    }, 
    {
      "op": "null", 
      "name": "bn2a_branch2b_moving_var", 
      "attr": {
        "__init__": "[\"one\", {}]", 
        "eps": "1e-05", 
        "fix_gamma": "False"
      }, 
      "inputs": []
    }, 
    {
      "op": "BatchNorm", 
      "name": "bn2a_branch2b", 
      "attr": {
        "eps": "1e-05", 
        "fix_gamma": "False"
      }, 
      "inputs": [[26, 0, 0], [27, 0, 0], [28, 0, 0], [29, 0, 1], [30, 0, 1]]
    }, 
    {
      "op": "Activation", 
      "name": "res2a_branch2b_relu", 
      "attr": {"act_type": "relu"}, 
      "inputs": [[31, 0, 0]]
    }, 
    {
      "op": "null", 
      "name": "res2a_branch2b_t_weight", 
      "attr": {
        "kernel": "(3, 1, 1)", 
        "no_bias": "True", 
        "num_filter": "64", 
        "pad": "(1, 0, 0)", 
        "stride": "(1, 1, 1)"
      }, 
      "inputs": []
    }, 
    {
      "op": "Convolution", 
      "name": "res2a_branch2b_t", 
      "attr": {
        "kernel": "(3, 1, 1)", 
        "no_bias": "True", 
        "num_filter": "64", 
        "pad": "(1, 0, 0)", 
        "stride": "(1, 1, 1)"
      }, 
      "inputs": [[32, 0, 0], [33, 0, 0]]
    }, 
    {
      "op": "null", 
      "name": "bn2a_branch2b_t_gamma", 
      "attr": {
        "eps": "1e-05", 
        "fix_gamma": "False"
      }, 
      "inputs": []
    }, 
    {
      "op": "null", 
      "name": "bn2a_branch2b_t_beta", 
      "attr": {
        "eps": "1e-05", 
        "fix_gamma": "False"
      }, 
      "inputs": []
    }, 
    {
      "op": "null", 
      "name": "bn2a_branch2b_t_moving_mean", 
      "attr": {
        "__init__": "[\"zero\", {}]", 
        "eps": "1e-05", 
        "fix_gamma": "False"
      }, 
      "inputs": []
    }, 
    {
      "op": "null", 
      "name": "bn2a_branch2b_t_moving_var", 
      "attr": {
        "__init__": "[\"one\", {}]", 
        "eps": "1e-05", 
        "fix_gamma": "False"
      }, 
      "inputs": []
    }, 
    {
      "op": "BatchNorm", 
      "name": "bn2a_branch2b_t", 
      "attr": {
        "eps": "1e-05", 
        "fix_gamma": "False"
      }, 
      "inputs": [[34, 0, 0], [35, 0, 0], [36, 0, 0], [37, 0, 1], [38, 0, 1]]
    }, 
    {
      "op": "Activation", 
      "name": "res2a_branch2b_t_relu", 
      "attr": {"act_type": "relu"}, 
      "inputs": [[39, 0, 0]]
    }, 
    {
      "op": "null", 
      "name": "res2a_branch2c_weight", 
      "attr": {
        "kernel": "(1, 1, 1)", 
        "no_bias": "True", 
        "num_filter": "256", 
        "pad": "(0, 0, 0)", 
        "stride": "(1, 1, 1)"
      }, 
      "inputs": []
    }, 
    {
      "op": "Convolution", 
      "name": "res2a_branch2c", 
      "attr": {
        "kernel": "(1, 1, 1)", 
        "no_bias": "True", 
        "num_filter": "256", 
        "pad": "(0, 0, 0)", 
        "stride": "(1, 1, 1)"
      }, 
      "inputs": [[40, 0, 0], [41, 0, 0]]
    }, 
    {
      "op": "null", 
      "name": "bn2a_branch2c_gamma", 
      "attr": {
        "eps": "1e-05", 
        "fix_gamma": "False"
      }, 
      "inputs": []
    }, 
    {
      "op": "null", 
      "name": "bn2a_branch2c_beta", 
      "attr": {
        "eps": "1e-05", 
        "fix_gamma": "False"
      }, 
      "inputs": []
    }, 
    {
      "op": "null", 
      "name": "bn2a_branch2c_moving_mean", 
      "attr": {
        "__init__": "[\"zero\", {}]", 
        "eps": "1e-05", 
        "fix_gamma": "False"
      }, 
      "inputs": []
    }, 
    {
      "op": "null", 
      "name": "bn2a_branch2c_moving_var", 
      "attr": {
        "__init__": "[\"one\", {}]", 
        "eps": "1e-05", 
        "fix_gamma": "False"
      }, 
      "inputs": []
    }, 
    {
      "op": "BatchNorm", 
      "name": "bn2a_branch2c", 
      "attr": {
        "eps": "1e-05", 
        "fix_gamma": "False"
      }, 
      "inputs": [[42, 0, 0], [43, 0, 0], [44, 0, 0], [45, 0, 1], [46, 0, 1]]
    }, 
    {
      "op": "broadcast_add", 
      "name": "res2a", 
      "inputs": [[16, 0, 0], [47, 0, 0]]
    }, 
    {
      "op": "Activation", 
      "name": "res2a_relu", 
      "attr": {"act_type": "relu"}, 
      "inputs": [[48, 0, 0]]
    }, 
    {
      "op": "null", 
      "name": "res2b_branch2a_weight", 
      "attr": {
        "kernel": "(1, 1, 1)", 
        "no_bias": "True", 
        "num_filter": "64", 
        "pad": "(0, 0, 0)", 
        "stride": "(1, 1, 1)"
      }, 
      "inputs": []
    }, 
    {
      "op": "Convolution", 
      "name": "res2b_branch2a", 
      "attr": {
        "kernel": "(1, 1, 1)", 
        "no_bias": "True", 
        "num_filter": "64", 
        "pad": "(0, 0, 0)", 
        "stride": "(1, 1, 1)"
      }, 
      "inputs": [[49, 0, 0], [50, 0, 0]]
    }, 
    {
      "op": "null", 
      "name": "bn2b_branch2a_gamma", 
      "attr": {
        "eps": "1e-05", 
        "fix_gamma": "False"
      }, 
      "inputs": []
    }, 
    {
      "op": "null", 
      "name": "bn2b_branch2a_beta", 
      "attr": {
        "eps": "1e-05", 
        "fix_gamma": "False"
      }, 
      "inputs": []
    }, 
    {
      "op": "null", 
      "name": "bn2b_branch2a_moving_mean", 
      "attr": {
        "__init__": "[\"zero\", {}]", 
        "eps": "1e-05", 
        "fix_gamma": "False"
      }, 
      "inputs": []
    }, 
    {
      "op": "null", 
      "name": "bn2b_branch2a_moving_var", 
      "attr": {
        "__init__": "[\"one\", {}]", 
        "eps": "1e-05", 
        "fix_gamma": "False"
      }, 
      "inputs": []
    }, 
    {
      "op": "BatchNorm", 
      "name": "bn2b_branch2a", 
      "attr": {
        "eps": "1e-05", 
        "fix_gamma": "False"
      }, 
      "inputs": [[51, 0, 0], [52, 0, 0], [53, 0, 0], [54, 0, 1], [55, 0, 1]]
    }, 
    {
      "op": "Activation", 
      "name": "res2b_branch2a_relu", 
      "attr": {"act_type": "relu"}, 
      "inputs": [[56, 0, 0]]
    }, 
    {
      "op": "null", 
      "name": "res2b_branch2b_weight", 
      "attr": {
        "kernel": "(1, 3, 3)", 
        "no_bias": "True", 
        "num_filter": "64", 
        "pad": "(0, 1, 1)", 
        "stride": "(1, 1, 1)"
      }, 
      "inputs": []
    }, 
    {
      "op": "Convolution", 
      "name": "res2b_branch2b", 
      "attr": {
        "kernel": "(1, 3, 3)", 
        "no_bias": "True", 
        "num_filter": "64", 
        "pad": "(0, 1, 1)", 
        "stride": "(1, 1, 1)"
      }, 
      "inputs": [[57, 0, 0], [58, 0, 0]]
    }, 
    {
      "op": "null", 
      "name": "bn2b_branch2b_gamma", 
      "attr": {
        "eps": "1e-05", 
        "fix_gamma": "False"
      }, 
      "inputs": []
    }, 
    {
      "op": "null", 
      "name": "bn2b_branch2b_beta", 
      "attr": {
        "eps": "1e-05", 
        "fix_gamma": "False"
      }, 
      "inputs": []
    }, 
    {
      "op": "null", 
      "name": "bn2b_branch2b_moving_mean", 
      "attr": {
        "__init__": "[\"zero\", {}]", 
        "eps": "1e-05", 
        "fix_gamma": "False"
      }, 
      "inputs": []
    }, 
    {
      "op": "null", 
      "name": "bn2b_branch2b_moving_var", 
      "attr": {
        "__init__": "[\"one\", {}]", 
        "eps": "1e-05", 
        "fix_gamma": "False"
      }, 
      "inputs": []
    }, 
    {
      "op": "BatchNorm", 
      "name": "bn2b_branch2b", 
      "attr": {
        "eps": "1e-05", 
        "fix_gamma": "False"
      }, 
      "inputs": [[59, 0, 0], [60, 0, 0], [61, 0, 0], [62, 0, 1], [63, 0, 1]]
    }, 
    {
      "op": "Activation", 
      "name": "res2b_branch2b_relu", 
      "attr": {"act_type": "relu"}, 
      "inputs": [[64, 0, 0]]
    }, 
    {
      "op": "_mul_scalar", 
      "name": "_mulscalar0", 
      "attr": {"scalar": "1.0"}, 
      "inputs": [[65, 0, 0]]
    }, 
    {
      "op": "null", 
      "name": "res2b_branch2b_t_weight", 
      "attr": {
        "kernel": "(3, 1, 1)", 
        "no_bias": "True", 
        "num_filter": "64", 
        "pad": "(1, 0, 0)", 
        "stride": "(1, 1, 1)"
      }, 
      "inputs": []
    }, 
    {
      "op": "Convolution", 
      "name": "res2b_branch2b_t", 
      "attr": {
        "kernel": "(3, 1, 1)", 
        "no_bias": "True", 
        "num_filter": "64", 
        "pad": "(1, 0, 0)", 
        "stride": "(1, 1, 1)"
      }, 
      "inputs": [[57, 0, 0], [67, 0, 0]]
    }, 
    {
      "op": "null", 
      "name": "bn2b_branch2b_t_gamma", 
      "attr": {
        "eps": "1e-05", 
        "fix_gamma": "False"
      }, 
      "inputs": []
    }, 
    {
      "op": "null", 
      "name": "bn2b_branch2b_t_beta", 
      "attr": {
        "eps": "1e-05", 
        "fix_gamma": "False"
      }, 
      "inputs": []
    }, 
    {
      "op": "null", 
      "name": "bn2b_branch2b_t_moving_mean", 
      "attr": {
        "__init__": "[\"zero\", {}]", 
        "eps": "1e-05", 
        "fix_gamma": "False"
      }, 
      "inputs": []
    }, 
    {
      "op": "null", 
      "name": "bn2b_branch2b_t_moving_var", 
      "attr": {
        "__init__": "[\"one\", {}]", 
        "eps": "1e-05", 
        "fix_gamma": "False"
      }, 
      "inputs": []
    }, 
    {
      "op": "BatchNorm", 
      "name": "bn2b_branch2b_t", 
      "attr": {
        "eps": "1e-05", 
        "fix_gamma": "False"
      }, 
      "inputs": [[68, 0, 0], [69, 0, 0], [70, 0, 0], [71, 0, 1], [72, 0, 1]]
    }, 
    {
      "op": "_mul_scalar", 
      "name": "_mulscalar1", 
      "attr": {"scalar": "1.0"}, 
      "inputs": [[73, 0, 0]]
    }, 
    {
      "op": "elemwise_add", 
      "name": "_plus0", 
      "inputs": [[66, 0, 0], [74, 0, 0]]
    }, 
    {
      "op": "Activation", 
      "name": "res2b_branch2b_st_relu", 
      "attr": {"act_type": "relu"}, 
      "inputs": [[75, 0, 0]]
    }, 
    {
      "op": "null", 
      "name": "res2b_branch2c_weight", 
      "attr": {
        "kernel": "(1, 1, 1)", 
        "no_bias": "True", 
        "num_filter": "256", 
        "pad": "(0, 0, 0)", 
        "stride": "(1, 1, 1)"
      }, 
      "inputs": []
    }, 
    {
      "op": "Convolution", 
      "name": "res2b_branch2c", 
      "attr": {
        "kernel": "(1, 1, 1)", 
        "no_bias": "True", 
        "num_filter": "256", 
        "pad": "(0, 0, 0)", 
        "stride": "(1, 1, 1)"
      }, 
      "inputs": [[76, 0, 0], [77, 0, 0]]
    }, 
    {
      "op": "null", 
      "name": "bn2b_branch2c_gamma", 
      "attr": {
        "eps": "1e-05", 
        "fix_gamma": "False"
      }, 
      "inputs": []
    }, 
    {
      "op": "null", 
      "name": "bn2b_branch2c_beta", 
      "attr": {
        "eps": "1e-05", 
        "fix_gamma": "False"
      }, 
      "inputs": []
    }, 
    {
      "op": "null", 
      "name": "bn2b_branch2c_moving_mean", 
      "attr": {
        "__init__": "[\"zero\", {}]", 
        "eps": "1e-05", 
        "fix_gamma": "False"
      }, 
      "inputs": []
    }, 
    {
      "op": "null", 
      "name": "bn2b_branch2c_moving_var", 
      "attr": {
        "__init__": "[\"one\", {}]", 
        "eps": "1e-05", 
        "fix_gamma": "False"
      }, 
      "inputs": []
    }, 
    {
      "op": "BatchNorm", 
      "name": "bn2b_branch2c", 
      "attr": {
        "eps": "1e-05", 
        "fix_gamma": "False"
      }, 
      "inputs": [[78, 0, 0], [79, 0, 0], [80, 0, 0], [81, 0, 1], [82, 0, 1]]
    }, 
    {
      "op": "broadcast_add", 
      "name": "res2b", 
      "inputs": [[49, 0, 0], [83, 0, 0]]
    }, 
    {
      "op": "Activation", 
      "name": "res2b_relu", 
      "attr": {"act_type": "relu"}, 
      "inputs": [[84, 0, 0]]
    }, 
    {
      "op": "null", 
      "name": "res2c_branch2a_weight", 
      "attr": {
        "kernel": "(1, 1, 1)", 
        "no_bias": "True", 
        "num_filter": "64", 
        "pad": "(0, 0, 0)", 
        "stride": "(1, 1, 1)"
      }, 
      "inputs": []
    }, 
    {
      "op": "Convolution", 
      "name": "res2c_branch2a", 
      "attr": {
        "kernel": "(1, 1, 1)", 
        "no_bias": "True", 
        "num_filter": "64", 
        "pad": "(0, 0, 0)", 
        "stride": "(1, 1, 1)"
      }, 
      "inputs": [[85, 0, 0], [86, 0, 0]]
    }, 
    {
      "op": "null", 
      "name": "bn2c_branch2a_gamma", 
      "attr": {
        "eps": "1e-05", 
        "fix_gamma": "False"
      }, 
      "inputs": []
    }, 
    {
      "op": "null", 
      "name": "bn2c_branch2a_beta", 
      "attr": {
        "eps": "1e-05", 
        "fix_gamma": "False"
      }, 
      "inputs": []
    }, 
    {
      "op": "null", 
      "name": "bn2c_branch2a_moving_mean", 
      "attr": {
        "__init__": "[\"zero\", {}]", 
        "eps": "1e-05", 
        "fix_gamma": "False"
      }, 
      "inputs": []
    }, 
    {
      "op": "null", 
      "name": "bn2c_branch2a_moving_var", 
      "attr": {
        "__init__": "[\"one\", {}]", 
        "eps": "1e-05", 
        "fix_gamma": "False"
      }, 
      "inputs": []
    }, 
    {
      "op": "BatchNorm", 
      "name": "bn2c_branch2a", 
      "attr": {
        "eps": "1e-05", 
        "fix_gamma": "False"
      }, 
      "inputs": [[87, 0, 0], [88, 0, 0], [89, 0, 0], [90, 0, 1], [91, 0, 1]]
    }, 
    {
      "op": "Activation", 
      "name": "res2c_branch2a_relu", 
      "attr": {"act_type": "relu"}, 
      "inputs": [[92, 0, 0]]
    }, 
    {
      "op": "null", 
      "name": "res2c_branch2b_weight", 
      "attr": {
        "kernel": "(1, 3, 3)", 
        "no_bias": "True", 
        "num_filter": "64", 
        "pad": "(0, 1, 1)", 
        "stride": "(1, 1, 1)"
      }, 
      "inputs": []
    }, 
    {
      "op": "Convolution", 
      "name": "res2c_branch2b", 
      "attr": {
        "kernel": "(1, 3, 3)", 
        "no_bias": "True", 
        "num_filter": "64", 
        "pad": "(0, 1, 1)", 
        "stride": "(1, 1, 1)"
      }, 
      "inputs": [[93, 0, 0], [94, 0, 0]]
    }, 
    {
      "op": "null", 
      "name": "bn2c_branch2b_gamma", 
      "attr": {
        "eps": "1e-05", 
        "fix_gamma": "False"
      }, 
      "inputs": []
    }, 
    {
      "op": "null", 
      "name": "bn2c_branch2b_beta", 
      "attr": {
        "eps": "1e-05", 
        "fix_gamma": "False"
      }, 
      "inputs": []
    }, 
    {
      "op": "null", 
      "name": "bn2c_branch2b_moving_mean", 
      "attr": {
        "__init__": "[\"zero\", {}]", 
        "eps": "1e-05", 
        "fix_gamma": "False"
      }, 
      "inputs": []
    }, 
    {
      "op": "null", 
      "name": "bn2c_branch2b_moving_var", 
      "attr": {
        "__init__": "[\"one\", {}]", 
        "eps": "1e-05", 
        "fix_gamma": "False"
      }, 
      "inputs": []
    }, 
    {
      "op": "BatchNorm", 
      "name": "bn2c_branch2b", 
      "attr": {
        "eps": "1e-05", 
        "fix_gamma": "False"
      }, 
      "inputs": [[95, 0, 0], [96, 0, 0], [97, 0, 0], [98, 0, 1], [99, 0, 1]]
    }, 
    {
      "op": "Activation", 
      "name": "res2c_branch2b_relu", 
      "attr": {"act_type": "relu"}, 
      "inputs": [[100, 0, 0]]
    }, 
    {
      "op": "_mul_scalar", 
      "name": "_mulscalar2", 
      "attr": {"scalar": "0.5"}, 
      "inputs": [[101, 0, 0]]
    }, 
    {
      "op": "null", 
      "name": "res2c_branch2b_t_weight", 
      "attr": {
        "kernel": "(3, 1, 1)", 
        "no_bias": "True", 
        "num_filter": "64", 
        "pad": "(1, 0, 0)", 
        "stride": "(1, 1, 1)"
      }, 
      "inputs": []
    }, 
    {
      "op": "Convolution", 
      "name": "res2c_branch2b_t", 
      "attr": {
        "kernel": "(3, 1, 1)", 
        "no_bias": "True", 
        "num_filter": "64", 
        "pad": "(1, 0, 0)", 
        "stride": "(1, 1, 1)"
      }, 
      "inputs": [[101, 0, 0], [103, 0, 0]]
    }, 
    {
      "op": "null", 
      "name": "bn2c_branch2b_t_gamma", 
      "attr": {
        "eps": "1e-05", 
        "fix_gamma": "False"
      }, 
      "inputs": []
    }, 
    {
      "op": "null", 
      "name": "bn2c_branch2b_t_beta", 
      "attr": {
        "eps": "1e-05", 
        "fix_gamma": "False"
      }, 
      "inputs": []
    }, 
    {
      "op": "null", 
      "name": "bn2c_branch2b_t_moving_mean", 
      "attr": {
        "__init__": "[\"zero\", {}]", 
        "eps": "1e-05", 
        "fix_gamma": "False"
      }, 
      "inputs": []
    }, 
    {
      "op": "null", 
      "name": "bn2c_branch2b_t_moving_var", 
      "attr": {
        "__init__": "[\"one\", {}]", 
        "eps": "1e-05", 
        "fix_gamma": "False"
      }, 
      "inputs": []
    }, 
    {
      "op": "BatchNorm", 
      "name": "bn2c_branch2b_t", 
      "attr": {
        "eps": "1e-05", 
        "fix_gamma": "False"
      }, 
      "inputs": [[104, 0, 0], [105, 0, 0], [106, 0, 0], [107, 0, 1], [108, 0, 1]]
    }, 
    {
      "op": "_mul_scalar", 
      "name": "_mulscalar3", 
      "attr": {"scalar": "0.5"}, 
      "inputs": [[109, 0, 0]]
    }, 
    {
      "op": "elemwise_add", 
      "name": "_plus1", 
      "inputs": [[102, 0, 0], [110, 0, 0]]
    }, 
    {
      "op": "Activation", 
      "name": "res2c_branch2b_st_relu", 
      "attr": {"act_type": "relu"}, 
      "inputs": [[111, 0, 0]]
    }, 
    {
      "op": "null", 
      "name": "res2c_branch2c_weight", 
      "attr": {
        "kernel": "(1, 1, 1)", 
        "no_bias": "True", 
        "num_filter": "256", 
        "pad": "(0, 0, 0)", 
        "stride": "(1, 1, 1)"
      }, 
      "inputs": []
    }, 
    {
      "op": "Convolution", 
      "name": "res2c_branch2c", 
      "attr": {
        "kernel": "(1, 1, 1)", 
        "no_bias": "True", 
        "num_filter": "256", 
        "pad": "(0, 0, 0)", 
        "stride": "(1, 1, 1)"
      }, 
      "inputs": [[112, 0, 0], [113, 0, 0]]
    }, 
    {
      "op": "null", 
      "name": "bn2c_branch2c_gamma", 
      "attr": {
        "eps": "1e-05", 
        "fix_gamma": "False"
      }, 
      "inputs": []
    }, 
    {
      "op": "null", 
      "name": "bn2c_branch2c_beta", 
      "attr": {
        "eps": "1e-05", 
        "fix_gamma": "False"
      }, 
      "inputs": []
    }, 
    {
      "op": "null", 
      "name": "bn2c_branch2c_moving_mean", 
      "attr": {
        "__init__": "[\"zero\", {}]", 
        "eps": "1e-05", 
        "fix_gamma": "False"
      }, 
      "inputs": []
    }, 
    {
      "op": "null", 
      "name": "bn2c_branch2c_moving_var", 
      "attr": {
        "__init__": "[\"one\", {}]", 
        "eps": "1e-05", 
        "fix_gamma": "False"
      }, 
      "inputs": []
    }, 
    {
      "op": "BatchNorm", 
      "name": "bn2c_branch2c", 
      "attr": {
        "eps": "1e-05", 
        "fix_gamma": "False"
      }, 
      "inputs": [[114, 0, 0], [115, 0, 0], [116, 0, 0], [117, 0, 1], [118, 0, 1]]
    }, 
    {
      "op": "broadcast_add", 
      "name": "res2c", 
      "inputs": [[85, 0, 0], [119, 0, 0]]
    }, 
    {
      "op": "Activation", 
      "name": "res2c_relu", 
      "attr": {"act_type": "relu"}, 
      "inputs": [[120, 0, 0]]
    }, 
    {
      "op": "Pooling", 
      "name": "_3a_pool", 
      "attr": {
        "kernel": "(2, 1, 1)", 
        "pad": "(0, 0, 0)", 
        "pool_type": "max", 
        "pooling_convention": "full", 
        "stride": "(2, 1, 1)"
      }, 
      "inputs": [[121, 0, 0]]
    }, 
    {
      "op": "null", 
      "name": "res3a_branch1_weight", 
      "attr": {
        "kernel": "(1, 1, 1)", 
        "no_bias": "True", 
        "num_filter": "512", 
        "pad": "(0, 0, 0)", 
        "stride": "(1, 2, 2)"
      }, 
      "inputs": []
    }, 
    {
      "op": "Convolution", 
      "name": "res3a_branch1", 
      "attr": {
        "kernel": "(1, 1, 1)", 
        "no_bias": "True", 
        "num_filter": "512", 
        "pad": "(0, 0, 0)", 
        "stride": "(1, 2, 2)"
      }, 
      "inputs": [[122, 0, 0], [123, 0, 0]]
    }, 
    {
      "op": "null", 
      "name": "bn3a_branch1_gamma", 
      "attr": {
        "eps": "1e-05", 
        "fix_gamma": "False"
      }, 
      "inputs": []
    }, 
    {
      "op": "null", 
      "name": "bn3a_branch1_beta", 
      "attr": {
        "eps": "1e-05", 
        "fix_gamma": "False"
      }, 
      "inputs": []
    }, 
    {
      "op": "null", 
      "name": "bn3a_branch1_moving_mean", 
      "attr": {
        "__init__": "[\"zero\", {}]", 
        "eps": "1e-05", 
        "fix_gamma": "False"
      }, 
      "inputs": []
    }, 
    {
      "op": "null", 
      "name": "bn3a_branch1_moving_var", 
      "attr": {
        "__init__": "[\"one\", {}]", 
        "eps": "1e-05", 
        "fix_gamma": "False"
      }, 
      "inputs": []
    }, 
    {
      "op": "BatchNorm", 
      "name": "bn3a_branch1", 
      "attr": {
        "eps": "1e-05", 
        "fix_gamma": "False"
      }, 
      "inputs": [[124, 0, 0], [125, 0, 0], [126, 0, 0], [127, 0, 1], [128, 0, 1]]
    }, 
    {
      "op": "null", 
      "name": "res3a_branch2a_weight", 
      "attr": {
        "kernel": "(1, 1, 1)", 
        "no_bias": "True", 
        "num_filter": "128", 
        "pad": "(0, 0, 0)", 
        "stride": "(1, 2, 2)"
      }, 
      "inputs": []
    }, 
    {
      "op": "Convolution", 
      "name": "res3a_branch2a", 
      "attr": {
        "kernel": "(1, 1, 1)", 
        "no_bias": "True", 
        "num_filter": "128", 
        "pad": "(0, 0, 0)", 
        "stride": "(1, 2, 2)"
      }, 
      "inputs": [[122, 0, 0], [130, 0, 0]]
    }, 
    {
      "op": "null", 
      "name": "bn3a_branch2a_gamma", 
      "attr": {
        "eps": "1e-05", 
        "fix_gamma": "False"
      }, 
      "inputs": []
    }, 
    {
      "op": "null", 
      "name": "bn3a_branch2a_beta", 
      "attr": {
        "eps": "1e-05", 
        "fix_gamma": "False"
      }, 
      "inputs": []
    }, 
    {
      "op": "null", 
      "name": "bn3a_branch2a_moving_mean", 
      "attr": {
        "__init__": "[\"zero\", {}]", 
        "eps": "1e-05", 
        "fix_gamma": "False"
      }, 
      "inputs": []
    }, 
    {
      "op": "null", 
      "name": "bn3a_branch2a_moving_var", 
      "attr": {
        "__init__": "[\"one\", {}]", 
        "eps": "1e-05", 
        "fix_gamma": "False"
      }, 
      "inputs": []
    }, 
    {
      "op": "BatchNorm", 
      "name": "bn3a_branch2a", 
      "attr": {
        "eps": "1e-05", 
        "fix_gamma": "False"
      }, 
      "inputs": [[131, 0, 0], [132, 0, 0], [133, 0, 0], [134, 0, 1], [135, 0, 1]]
    }, 
    {
      "op": "Activation", 
      "name": "res3a_branch2a_relu", 
      "attr": {"act_type": "relu"}, 
      "inputs": [[136, 0, 0]]
    }, 
    {
      "op": "null", 
      "name": "res3a_branch2b_weight", 
      "attr": {
        "kernel": "(1, 3, 3)", 
        "no_bias": "True", 
        "num_filter": "128", 
        "pad": "(0, 1, 1)", 
        "stride": "(1, 1, 1)"
      }, 
      "inputs": []
    }, 
    {
      "op": "Convolution", 
      "name": "res3a_branch2b", 
      "attr": {
        "kernel": "(1, 3, 3)", 
        "no_bias": "True", 
        "num_filter": "128", 
        "pad": "(0, 1, 1)", 
        "stride": "(1, 1, 1)"
      }, 
      "inputs": [[137, 0, 0], [138, 0, 0]]
    }, 
    {
      "op": "null", 
      "name": "bn3a_branch2b_gamma", 
      "attr": {
        "eps": "1e-05", 
        "fix_gamma": "False"
      }, 
      "inputs": []
    }, 
    {
      "op": "null", 
      "name": "bn3a_branch2b_beta", 
      "attr": {
        "eps": "1e-05", 
        "fix_gamma": "False"
      }, 
      "inputs": []
    }, 
    {
      "op": "null", 
      "name": "bn3a_branch2b_moving_mean", 
      "attr": {
        "__init__": "[\"zero\", {}]", 
        "eps": "1e-05", 
        "fix_gamma": "False"
      }, 
      "inputs": []
    }, 
    {
      "op": "null", 
      "name": "bn3a_branch2b_moving_var", 
      "attr": {
        "__init__": "[\"one\", {}]", 
        "eps": "1e-05", 
        "fix_gamma": "False"
      }, 
      "inputs": []
    }, 
    {
      "op": "BatchNorm", 
      "name": "bn3a_branch2b", 
      "attr": {
        "eps": "1e-05", 
        "fix_gamma": "False"
      }, 
      "inputs": [[139, 0, 0], [140, 0, 0], [141, 0, 0], [142, 0, 1], [143, 0, 1]]
    }, 
    {
      "op": "Activation", 
      "name": "res3a_branch2b_relu", 
      "attr": {"act_type": "relu"}, 
      "inputs": [[144, 0, 0]]
    }, 
    {
      "op": "null", 
      "name": "res3a_branch2b_t_weight", 
      "attr": {
        "kernel": "(3, 1, 1)", 
        "no_bias": "True", 
        "num_filter": "128", 
        "pad": "(1, 0, 0)", 
        "stride": "(1, 1, 1)"
      }, 
      "inputs": []
    }, 
    {
      "op": "Convolution", 
      "name": "res3a_branch2b_t", 
      "attr": {
        "kernel": "(3, 1, 1)", 
        "no_bias": "True", 
        "num_filter": "128", 
        "pad": "(1, 0, 0)", 
        "stride": "(1, 1, 1)"
      }, 
      "inputs": [[145, 0, 0], [146, 0, 0]]
    }, 
    {
      "op": "null", 
      "name": "bn3a_branch2b_t_gamma", 
      "attr": {
        "eps": "1e-05", 
        "fix_gamma": "False"
      }, 
      "inputs": []
    }, 
    {
      "op": "null", 
      "name": "bn3a_branch2b_t_beta", 
      "attr": {
        "eps": "1e-05", 
        "fix_gamma": "False"
      }, 
      "inputs": []
    }, 
    {
      "op": "null", 
      "name": "bn3a_branch2b_t_moving_mean", 
      "attr": {
        "__init__": "[\"zero\", {}]", 
        "eps": "1e-05", 
        "fix_gamma": "False"
      }, 
      "inputs": []
    }, 
    {
      "op": "null", 
      "name": "bn3a_branch2b_t_moving_var", 
      "attr": {
        "__init__": "[\"one\", {}]", 
        "eps": "1e-05", 
        "fix_gamma": "False"
      }, 
      "inputs": []
    }, 
    {
      "op": "BatchNorm", 
      "name": "bn3a_branch2b_t", 
      "attr": {
        "eps": "1e-05", 
        "fix_gamma": "False"
      }, 
      "inputs": [[147, 0, 0], [148, 0, 0], [149, 0, 0], [150, 0, 1], [151, 0, 1]]
    }, 
    {
      "op": "Activation", 
      "name": "res3a_branch2b_t_relu", 
      "attr": {"act_type": "relu"}, 
      "inputs": [[152, 0, 0]]
    }, 
    {
      "op": "null", 
      "name": "res3a_branch2c_weight", 
      "attr": {
        "kernel": "(1, 1, 1)", 
        "no_bias": "True", 
        "num_filter": "512", 
        "pad": "(0, 0, 0)", 
        "stride": "(1, 1, 1)"
      }, 
      "inputs": []
    }, 
    {
      "op": "Convolution", 
      "name": "res3a_branch2c", 
      "attr": {
        "kernel": "(1, 1, 1)", 
        "no_bias": "True", 
        "num_filter": "512", 
        "pad": "(0, 0, 0)", 
        "stride": "(1, 1, 1)"
      }, 
      "inputs": [[153, 0, 0], [154, 0, 0]]
    }, 
    {
      "op": "null", 
      "name": "bn3a_branch2c_gamma", 
      "attr": {
        "eps": "1e-05", 
        "fix_gamma": "False"
      }, 
      "inputs": []
    }, 
    {
      "op": "null", 
      "name": "bn3a_branch2c_beta", 
      "attr": {
        "eps": "1e-05", 
        "fix_gamma": "False"
      }, 
      "inputs": []
    }, 
    {
      "op": "null", 
      "name": "bn3a_branch2c_moving_mean", 
      "attr": {
        "__init__": "[\"zero\", {}]", 
        "eps": "1e-05", 
        "fix_gamma": "False"
      }, 
      "inputs": []
    }, 
    {
      "op": "null", 
      "name": "bn3a_branch2c_moving_var", 
      "attr": {
        "__init__": "[\"one\", {}]", 
        "eps": "1e-05", 
        "fix_gamma": "False"
      }, 
      "inputs": []
    }, 
    {
      "op": "BatchNorm", 
      "name": "bn3a_branch2c", 
      "attr": {
        "eps": "1e-05", 
        "fix_gamma": "False"
      }, 
      "inputs": [[155, 0, 0], [156, 0, 0], [157, 0, 0], [158, 0, 1], [159, 0, 1]]
    }, 
    {
      "op": "broadcast_add", 
      "name": "res3a", 
      "inputs": [[129, 0, 0], [160, 0, 0]]
    }, 
    {
      "op": "Activation", 
      "name": "res3a_relu", 
      "attr": {"act_type": "relu"}, 
      "inputs": [[161, 0, 0]]
    }, 
    {
      "op": "null", 
      "name": "res3b1_branch2a_weight", 
      "attr": {
        "kernel": "(1, 1, 1)", 
        "no_bias": "True", 
        "num_filter": "128", 
        "pad": "(0, 0, 0)", 
        "stride": "(1, 1, 1)"
      }, 
      "inputs": []
    }, 
    {
      "op": "Convolution", 
      "name": "res3b1_branch2a", 
      "attr": {
        "kernel": "(1, 1, 1)", 
        "no_bias": "True", 
        "num_filter": "128", 
        "pad": "(0, 0, 0)", 
        "stride": "(1, 1, 1)"
      }, 
      "inputs": [[162, 0, 0], [163, 0, 0]]
    }, 
    {
      "op": "null", 
      "name": "bn3b1_branch2a_gamma", 
      "attr": {
        "eps": "1e-05", 
        "fix_gamma": "False"
      }, 
      "inputs": []
    }, 
    {
      "op": "null", 
      "name": "bn3b1_branch2a_beta", 
      "attr": {
        "eps": "1e-05", 
        "fix_gamma": "False"
      }, 
      "inputs": []
    }, 
    {
      "op": "null", 
      "name": "bn3b1_branch2a_moving_mean", 
      "attr": {
        "__init__": "[\"zero\", {}]", 
        "eps": "1e-05", 
        "fix_gamma": "False"
      }, 
      "inputs": []
    }, 
    {
      "op": "null", 
      "name": "bn3b1_branch2a_moving_var", 
      "attr": {
        "__init__": "[\"one\", {}]", 
        "eps": "1e-05", 
        "fix_gamma": "False"
      }, 
      "inputs": []
    }, 
    {
      "op": "BatchNorm", 
      "name": "bn3b1_branch2a", 
      "attr": {
        "eps": "1e-05", 
        "fix_gamma": "False"
      }, 
      "inputs": [[164, 0, 0], [165, 0, 0], [166, 0, 0], [167, 0, 1], [168, 0, 1]]
    }, 
    {
      "op": "Activation", 
      "name": "res3b1_branch2a_relu", 
      "attr": {"act_type": "relu"}, 
      "inputs": [[169, 0, 0]]
    }, 
    {
      "op": "null", 
      "name": "res3b1_branch2b_weight", 
      "attr": {
        "kernel": "(1, 3, 3)", 
        "no_bias": "True", 
        "num_filter": "128", 
        "pad": "(0, 1, 1)", 
        "stride": "(1, 1, 1)"
      }, 
      "inputs": []
    }, 
    {
      "op": "Convolution", 
      "name": "res3b1_branch2b", 
      "attr": {
        "kernel": "(1, 3, 3)", 
        "no_bias": "True", 
        "num_filter": "128", 
        "pad": "(0, 1, 1)", 
        "stride": "(1, 1, 1)"
      }, 
      "inputs": [[170, 0, 0], [171, 0, 0]]
    }, 
    {
      "op": "null", 
      "name": "bn3b1_branch2b_gamma", 
      "attr": {
        "eps": "1e-05", 
        "fix_gamma": "False"
      }, 
      "inputs": []
    }, 
    {
      "op": "null", 
      "name": "bn3b1_branch2b_beta", 
      "attr": {
        "eps": "1e-05", 
        "fix_gamma": "False"
      }, 
      "inputs": []
    }, 
    {
      "op": "null", 
      "name": "bn3b1_branch2b_moving_mean", 
      "attr": {
        "__init__": "[\"zero\", {}]", 
        "eps": "1e-05", 
        "fix_gamma": "False"
      }, 
      "inputs": []
    }, 
    {
      "op": "null", 
      "name": "bn3b1_branch2b_moving_var", 
      "attr": {
        "__init__": "[\"one\", {}]", 
        "eps": "1e-05", 
        "fix_gamma": "False"
      }, 
      "inputs": []
    }, 
    {
      "op": "BatchNorm", 
      "name": "bn3b1_branch2b", 
      "attr": {
        "eps": "1e-05", 
        "fix_gamma": "False"
      }, 
      "inputs": [[172, 0, 0], [173, 0, 0], [174, 0, 0], [175, 0, 1], [176, 0, 1]]
    }, 
    {
      "op": "Activation", 
      "name": "res3b1_branch2b_relu", 
      "attr": {"act_type": "relu"}, 
      "inputs": [[177, 0, 0]]
    }, 
    {
      "op": "_mul_scalar", 
      "name": "_mulscalar4", 
      "attr": {"scalar": "1.0"}, 
      "inputs": [[178, 0, 0]]
    }, 
    {
      "op": "null", 
      "name": "res3b1_branch2b_t_weight", 
      "attr": {
        "kernel": "(3, 1, 1)", 
        "no_bias": "True", 
        "num_filter": "128", 
        "pad": "(1, 0, 0)", 
        "stride": "(1, 1, 1)"
      }, 
      "inputs": []
    }, 
    {
      "op": "Convolution", 
      "name": "res3b1_branch2b_t", 
      "attr": {
        "kernel": "(3, 1, 1)", 
        "no_bias": "True", 
        "num_filter": "128", 
        "pad": "(1, 0, 0)", 
        "stride": "(1, 1, 1)"
      }, 
      "inputs": [[170, 0, 0], [180, 0, 0]]
    }, 
    {
      "op": "null", 
      "name": "bn3b1_branch2b_t_gamma", 
      "attr": {
        "eps": "1e-05", 
        "fix_gamma": "False"
      }, 
      "inputs": []
    }, 
    {
      "op": "null", 
      "name": "bn3b1_branch2b_t_beta", 
      "attr": {
        "eps": "1e-05", 
        "fix_gamma": "False"
      }, 
      "inputs": []
    }, 
    {
      "op": "null", 
      "name": "bn3b1_branch2b_t_moving_mean", 
      "attr": {
        "__init__": "[\"zero\", {}]", 
        "eps": "1e-05", 
        "fix_gamma": "False"
      }, 
      "inputs": []
    }, 
    {
      "op": "null", 
      "name": "bn3b1_branch2b_t_moving_var", 
      "attr": {
        "__init__": "[\"one\", {}]", 
        "eps": "1e-05", 
        "fix_gamma": "False"
      }, 
      "inputs": []
    }, 
    {
      "op": "BatchNorm", 
      "name": "bn3b1_branch2b_t", 
      "attr": {
        "eps": "1e-05", 
        "fix_gamma": "False"
      }, 
      "inputs": [[181, 0, 0], [182, 0, 0], [183, 0, 0], [184, 0, 1], [185, 0, 1]]
    }, 
    {
      "op": "_mul_scalar", 
      "name": "_mulscalar5", 
      "attr": {"scalar": "1.0"}, 
      "inputs": [[186, 0, 0]]
    }, 
    {
      "op": "elemwise_add", 
      "name": "_plus2", 
      "inputs": [[179, 0, 0], [187, 0, 0]]
    }, 
    {
      "op": "Activation", 
      "name": "res3b1_branch2b_st_relu", 
      "attr": {"act_type": "relu"}, 
      "inputs": [[188, 0, 0]]
    }, 
    {
      "op": "null", 
      "name": "res3b1_branch2c_weight", 
      "attr": {
        "kernel": "(1, 1, 1)", 
        "no_bias": "True", 
        "num_filter": "512", 
        "pad": "(0, 0, 0)", 
        "stride": "(1, 1, 1)"
      }, 
      "inputs": []
    }, 
    {
      "op": "Convolution", 
      "name": "res3b1_branch2c", 
      "attr": {
        "kernel": "(1, 1, 1)", 
        "no_bias": "True", 
        "num_filter": "512", 
        "pad": "(0, 0, 0)", 
        "stride": "(1, 1, 1)"
      }, 
      "inputs": [[189, 0, 0], [190, 0, 0]]
    }, 
    {
      "op": "null", 
      "name": "bn3b1_branch2c_gamma", 
      "attr": {
        "eps": "1e-05", 
        "fix_gamma": "False"
      }, 
      "inputs": []
    }, 
    {
      "op": "null", 
      "name": "bn3b1_branch2c_beta", 
      "attr": {
        "eps": "1e-05", 
        "fix_gamma": "False"
      }, 
      "inputs": []
    }, 
    {
      "op": "null", 
      "name": "bn3b1_branch2c_moving_mean", 
      "attr": {
        "__init__": "[\"zero\", {}]", 
        "eps": "1e-05", 
        "fix_gamma": "False"
      }, 
      "inputs": []
    }, 
    {
      "op": "null", 
      "name": "bn3b1_branch2c_moving_var", 
      "attr": {
        "__init__": "[\"one\", {}]", 
        "eps": "1e-05", 
        "fix_gamma": "False"
      }, 
      "inputs": []
    }, 
    {
      "op": "BatchNorm", 
      "name": "bn3b1_branch2c", 
      "attr": {
        "eps": "1e-05", 
        "fix_gamma": "False"
      }, 
      "inputs": [[191, 0, 0], [192, 0, 0], [193, 0, 0], [194, 0, 1], [195, 0, 1]]
    }, 
    {
      "op": "broadcast_add", 
      "name": "res3b1", 
      "inputs": [[162, 0, 0], [196, 0, 0]]
    }, 
    {
      "op": "Activation", 
      "name": "res3b1_relu", 
      "attr": {"act_type": "relu"}, 
      "inputs": [[197, 0, 0]]
    }, 
    {
      "op": "null", 
      "name": "res3b2_branch2a_weight", 
      "attr": {
        "kernel": "(1, 1, 1)", 
        "no_bias": "True", 
        "num_filter": "128", 
        "pad": "(0, 0, 0)", 
        "stride": "(1, 1, 1)"
      }, 
      "inputs": []
    }, 
    {
      "op": "Convolution", 
      "name": "res3b2_branch2a", 
      "attr": {
        "kernel": "(1, 1, 1)", 
        "no_bias": "True", 
        "num_filter": "128", 
        "pad": "(0, 0, 0)", 
        "stride": "(1, 1, 1)"
      }, 
      "inputs": [[198, 0, 0], [199, 0, 0]]
    }, 
    {
      "op": "null", 
      "name": "bn3b2_branch2a_gamma", 
      "attr": {
        "eps": "1e-05", 
        "fix_gamma": "False"
      }, 
      "inputs": []
    }, 
    {
      "op": "null", 
      "name": "bn3b2_branch2a_beta", 
      "attr": {
        "eps": "1e-05", 
        "fix_gamma": "False"
      }, 
      "inputs": []
    }, 
    {
      "op": "null", 
      "name": "bn3b2_branch2a_moving_mean", 
      "attr": {
        "__init__": "[\"zero\", {}]", 
        "eps": "1e-05", 
        "fix_gamma": "False"
      }, 
      "inputs": []
    }, 
    {
      "op": "null", 
      "name": "bn3b2_branch2a_moving_var", 
      "attr": {
        "__init__": "[\"one\", {}]", 
        "eps": "1e-05", 
        "fix_gamma": "False"
      }, 
      "inputs": []
    }, 
    {
      "op": "BatchNorm", 
      "name": "bn3b2_branch2a", 
      "attr": {
        "eps": "1e-05", 
        "fix_gamma": "False"
      }, 
      "inputs": [[200, 0, 0], [201, 0, 0], [202, 0, 0], [203, 0, 1], [204, 0, 1]]
    }, 
    {
      "op": "Activation", 
      "name": "res3b2_branch2a_relu", 
      "attr": {"act_type": "relu"}, 
      "inputs": [[205, 0, 0]]
    }, 
    {
      "op": "null", 
      "name": "res3b2_branch2b_weight", 
      "attr": {
        "kernel": "(1, 3, 3)", 
        "no_bias": "True", 
        "num_filter": "128", 
        "pad": "(0, 1, 1)", 
        "stride": "(1, 1, 1)"
      }, 
      "inputs": []
    }, 
    {
      "op": "Convolution", 
      "name": "res3b2_branch2b", 
      "attr": {
        "kernel": "(1, 3, 3)", 
        "no_bias": "True", 
        "num_filter": "128", 
        "pad": "(0, 1, 1)", 
        "stride": "(1, 1, 1)"
      }, 
      "inputs": [[206, 0, 0], [207, 0, 0]]
    }, 
    {
      "op": "null", 
      "name": "bn3b2_branch2b_gamma", 
      "attr": {
        "eps": "1e-05", 
        "fix_gamma": "False"
      }, 
      "inputs": []
    }, 
    {
      "op": "null", 
      "name": "bn3b2_branch2b_beta", 
      "attr": {
        "eps": "1e-05", 
        "fix_gamma": "False"
      }, 
      "inputs": []
    }, 
    {
      "op": "null", 
      "name": "bn3b2_branch2b_moving_mean", 
      "attr": {
        "__init__": "[\"zero\", {}]", 
        "eps": "1e-05", 
        "fix_gamma": "False"
      }, 
      "inputs": []
    }, 
    {
      "op": "null", 
      "name": "bn3b2_branch2b_moving_var", 
      "attr": {
        "__init__": "[\"one\", {}]", 
        "eps": "1e-05", 
        "fix_gamma": "False"
      }, 
      "inputs": []
    }, 
    {
      "op": "BatchNorm", 
      "name": "bn3b2_branch2b", 
      "attr": {
        "eps": "1e-05", 
        "fix_gamma": "False"
      }, 
      "inputs": [[208, 0, 0], [209, 0, 0], [210, 0, 0], [211, 0, 1], [212, 0, 1]]
    }, 
    {
      "op": "Activation", 
      "name": "res3b2_branch2b_relu", 
      "attr": {"act_type": "relu"}, 
      "inputs": [[213, 0, 0]]
    }, 
    {
      "op": "_mul_scalar", 
      "name": "_mulscalar6", 
      "attr": {"scalar": "0.5"}, 
      "inputs": [[214, 0, 0]]
    }, 
    {
      "op": "null", 
      "name": "res3b2_branch2b_t_weight", 
      "attr": {
        "kernel": "(3, 1, 1)", 
        "no_bias": "True", 
        "num_filter": "128", 
        "pad": "(1, 0, 0)", 
        "stride": "(1, 1, 1)"
      }, 
      "inputs": []
    }, 
    {
      "op": "Convolution", 
      "name": "res3b2_branch2b_t", 
      "attr": {
        "kernel": "(3, 1, 1)", 
        "no_bias": "True", 
        "num_filter": "128", 
        "pad": "(1, 0, 0)", 
        "stride": "(1, 1, 1)"
      }, 
      "inputs": [[214, 0, 0], [216, 0, 0]]
    }, 
    {
      "op": "null", 
      "name": "bn3b2_branch2b_t_gamma", 
      "attr": {
        "eps": "1e-05", 
        "fix_gamma": "False"
      }, 
      "inputs": []
    }, 
    {
      "op": "null", 
      "name": "bn3b2_branch2b_t_beta", 
      "attr": {
        "eps": "1e-05", 
        "fix_gamma": "False"
      }, 
      "inputs": []
    }, 
    {
      "op": "null", 
      "name": "bn3b2_branch2b_t_moving_mean", 
      "attr": {
        "__init__": "[\"zero\", {}]", 
        "eps": "1e-05", 
        "fix_gamma": "False"
      }, 
      "inputs": []
    }, 
    {
      "op": "null", 
      "name": "bn3b2_branch2b_t_moving_var", 
      "attr": {
        "__init__": "[\"one\", {}]", 
        "eps": "1e-05", 
        "fix_gamma": "False"
      }, 
      "inputs": []
    }, 
    {
      "op": "BatchNorm", 
      "name": "bn3b2_branch2b_t", 
      "attr": {
        "eps": "1e-05", 
        "fix_gamma": "False"
      }, 
      "inputs": [[217, 0, 0], [218, 0, 0], [219, 0, 0], [220, 0, 1], [221, 0, 1]]
    }, 
    {
      "op": "_mul_scalar", 
      "name": "_mulscalar7", 
      "attr": {"scalar": "0.5"}, 
      "inputs": [[222, 0, 0]]
    }, 
    {
      "op": "elemwise_add", 
      "name": "_plus3", 
      "inputs": [[215, 0, 0], [223, 0, 0]]
    }, 
    {
      "op": "Activation", 
      "name": "res3b2_branch2b_st_relu", 
      "attr": {"act_type": "relu"}, 
      "inputs": [[224, 0, 0]]
    }, 
    {
      "op": "null", 
      "name": "res3b2_branch2c_weight", 
      "attr": {
        "kernel": "(1, 1, 1)", 
        "no_bias": "True", 
        "num_filter": "512", 
        "pad": "(0, 0, 0)", 
        "stride": "(1, 1, 1)"
      }, 
      "inputs": []
    }, 
    {
      "op": "Convolution", 
      "name": "res3b2_branch2c", 
      "attr": {
        "kernel": "(1, 1, 1)", 
        "no_bias": "True", 
        "num_filter": "512", 
        "pad": "(0, 0, 0)", 
        "stride": "(1, 1, 1)"
      }, 
      "inputs": [[225, 0, 0], [226, 0, 0]]
    }, 
    {
      "op": "null", 
      "name": "bn3b2_branch2c_gamma", 
      "attr": {
        "eps": "1e-05", 
        "fix_gamma": "False"
      }, 
      "inputs": []
    }, 
    {
      "op": "null", 
      "name": "bn3b2_branch2c_beta", 
      "attr": {
        "eps": "1e-05", 
        "fix_gamma": "False"
      }, 
      "inputs": []
    }, 
    {
      "op": "null", 
      "name": "bn3b2_branch2c_moving_mean", 
      "attr": {
        "__init__": "[\"zero\", {}]", 
        "eps": "1e-05", 
        "fix_gamma": "False"
      }, 
      "inputs": []
    }, 
    {
      "op": "null", 
      "name": "bn3b2_branch2c_moving_var", 
      "attr": {
        "__init__": "[\"one\", {}]", 
        "eps": "1e-05", 
        "fix_gamma": "False"
      }, 
      "inputs": []
    }, 
    {
      "op": "BatchNorm", 
      "name": "bn3b2_branch2c", 
      "attr": {
        "eps": "1e-05", 
        "fix_gamma": "False"
      }, 
      "inputs": [[227, 0, 0], [228, 0, 0], [229, 0, 0], [230, 0, 1], [231, 0, 1]]
    }, 
    {
      "op": "broadcast_add", 
      "name": "res3b2", 
      "inputs": [[198, 0, 0], [232, 0, 0]]
    }, 
    {
      "op": "Activation", 
      "name": "res3b2_relu", 
      "attr": {"act_type": "relu"}, 
      "inputs": [[233, 0, 0]]
    }, 
    {
      "op": "null", 
      "name": "res3b3_branch2a_weight", 
      "attr": {
        "kernel": "(1, 1, 1)", 
        "no_bias": "True", 
        "num_filter": "128", 
        "pad": "(0, 0, 0)", 
        "stride": "(1, 1, 1)"
      }, 
      "inputs": []
    }, 
    {
      "op": "Convolution", 
      "name": "res3b3_branch2a", 
      "attr": {
        "kernel": "(1, 1, 1)", 
        "no_bias": "True", 
        "num_filter": "128", 
        "pad": "(0, 0, 0)", 
        "stride": "(1, 1, 1)"
      }, 
      "inputs": [[234, 0, 0], [235, 0, 0]]
    }, 
    {
      "op": "null", 
      "name": "bn3b3_branch2a_gamma", 
      "attr": {
        "eps": "1e-05", 
        "fix_gamma": "False"
      }, 
      "inputs": []
    }, 
    {
      "op": "null", 
      "name": "bn3b3_branch2a_beta", 
      "attr": {
        "eps": "1e-05", 
        "fix_gamma": "False"
      }, 
      "inputs": []
    }, 
    {
      "op": "null", 
      "name": "bn3b3_branch2a_moving_mean", 
      "attr": {
        "__init__": "[\"zero\", {}]", 
        "eps": "1e-05", 
        "fix_gamma": "False"
      }, 
      "inputs": []
    }, 
    {
      "op": "null", 
      "name": "bn3b3_branch2a_moving_var", 
      "attr": {
        "__init__": "[\"one\", {}]", 
        "eps": "1e-05", 
        "fix_gamma": "False"
      }, 
      "inputs": []
    }, 
    {
      "op": "BatchNorm", 
      "name": "bn3b3_branch2a", 
      "attr": {
        "eps": "1e-05", 
        "fix_gamma": "False"
      }, 
      "inputs": [[236, 0, 0], [237, 0, 0], [238, 0, 0], [239, 0, 1], [240, 0, 1]]
    }, 
    {
      "op": "Activation", 
      "name": "res3b3_branch2a_relu", 
      "attr": {"act_type": "relu"}, 
      "inputs": [[241, 0, 0]]
    }, 
    {
      "op": "null", 
      "name": "res3b3_branch2b_weight", 
      "attr": {
        "kernel": "(1, 3, 3)", 
        "no_bias": "True", 
        "num_filter": "128", 
        "pad": "(0, 1, 1)", 
        "stride": "(1, 1, 1)"
      }, 
      "inputs": []
    }, 
    {
      "op": "Convolution", 
      "name": "res3b3_branch2b", 
      "attr": {
        "kernel": "(1, 3, 3)", 
        "no_bias": "True", 
        "num_filter": "128", 
        "pad": "(0, 1, 1)", 
        "stride": "(1, 1, 1)"
      }, 
      "inputs": [[242, 0, 0], [243, 0, 0]]
    }, 
    {
      "op": "null", 
      "name": "bn3b3_branch2b_gamma", 
      "attr": {
        "eps": "1e-05", 
        "fix_gamma": "False"
      }, 
      "inputs": []
    }, 
    {
      "op": "null", 
      "name": "bn3b3_branch2b_beta", 
      "attr": {
        "eps": "1e-05", 
        "fix_gamma": "False"
      }, 
      "inputs": []
    }, 
    {
      "op": "null", 
      "name": "bn3b3_branch2b_moving_mean", 
      "attr": {
        "__init__": "[\"zero\", {}]", 
        "eps": "1e-05", 
        "fix_gamma": "False"
      }, 
      "inputs": []
    }, 
    {
      "op": "null", 
      "name": "bn3b3_branch2b_moving_var", 
      "attr": {
        "__init__": "[\"one\", {}]", 
        "eps": "1e-05", 
        "fix_gamma": "False"
      }, 
      "inputs": []
    }, 
    {
      "op": "BatchNorm", 
      "name": "bn3b3_branch2b", 
      "attr": {
        "eps": "1e-05", 
        "fix_gamma": "False"
      }, 
      "inputs": [[244, 0, 0], [245, 0, 0], [246, 0, 0], [247, 0, 1], [248, 0, 1]]
    }, 
    {
      "op": "Activation", 
      "name": "res3b3_branch2b_relu", 
      "attr": {"act_type": "relu"}, 
      "inputs": [[249, 0, 0]]
    }, 
    {
      "op": "null", 
      "name": "res3b3_branch2b_t_weight", 
      "attr": {
        "kernel": "(3, 1, 1)", 
        "no_bias": "True", 
        "num_filter": "128", 
        "pad": "(1, 0, 0)", 
        "stride": "(1, 1, 1)"
      }, 
      "inputs": []
    }, 
    {
      "op": "Convolution", 
      "name": "res3b3_branch2b_t", 
      "attr": {
        "kernel": "(3, 1, 1)", 
        "no_bias": "True", 
        "num_filter": "128", 
        "pad": "(1, 0, 0)", 
        "stride": "(1, 1, 1)"
      }, 
      "inputs": [[250, 0, 0], [251, 0, 0]]
    }, 
    {
      "op": "null", 
      "name": "bn3b3_branch2b_t_gamma", 
      "attr": {
        "eps": "1e-05", 
        "fix_gamma": "False"
      }, 
      "inputs": []
    }, 
    {
      "op": "null", 
      "name": "bn3b3_branch2b_t_beta", 
      "attr": {
        "eps": "1e-05", 
        "fix_gamma": "False"
      }, 
      "inputs": []
    }, 
    {
      "op": "null", 
      "name": "bn3b3_branch2b_t_moving_mean", 
      "attr": {
        "__init__": "[\"zero\", {}]", 
        "eps": "1e-05", 
        "fix_gamma": "False"
      }, 
      "inputs": []
    }, 
    {
      "op": "null", 
      "name": "bn3b3_branch2b_t_moving_var", 
      "attr": {
        "__init__": "[\"one\", {}]", 
        "eps": "1e-05", 
        "fix_gamma": "False"
      }, 
      "inputs": []
    }, 
    {
      "op": "BatchNorm", 
      "name": "bn3b3_branch2b_t", 
      "attr": {
        "eps": "1e-05", 
        "fix_gamma": "False"
      }, 
      "inputs": [[252, 0, 0], [253, 0, 0], [254, 0, 0], [255, 0, 1], [256, 0, 1]]
    }, 
    {
      "op": "Activation", 
      "name": "res3b3_branch2b_t_relu", 
      "attr": {"act_type": "relu"}, 
      "inputs": [[257, 0, 0]]
    }, 
    {
      "op": "null", 
      "name": "res3b3_branch2c_weight", 
      "attr": {
        "kernel": "(1, 1, 1)", 
        "no_bias": "True", 
        "num_filter": "512", 
        "pad": "(0, 0, 0)", 
        "stride": "(1, 1, 1)"
      }, 
      "inputs": []
    }, 
    {
      "op": "Convolution", 
      "name": "res3b3_branch2c", 
      "attr": {
        "kernel": "(1, 1, 1)", 
        "no_bias": "True", 
        "num_filter": "512", 
        "pad": "(0, 0, 0)", 
        "stride": "(1, 1, 1)"
      }, 
      "inputs": [[258, 0, 0], [259, 0, 0]]
    }, 
    {
      "op": "null", 
      "name": "bn3b3_branch2c_gamma", 
      "attr": {
        "eps": "1e-05", 
        "fix_gamma": "False"
      }, 
      "inputs": []
    }, 
    {
      "op": "null", 
      "name": "bn3b3_branch2c_beta", 
      "attr": {
        "eps": "1e-05", 
        "fix_gamma": "False"
      }, 
      "inputs": []
    }, 
    {
      "op": "null", 
      "name": "bn3b3_branch2c_moving_mean", 
      "attr": {
        "__init__": "[\"zero\", {}]", 
        "eps": "1e-05", 
        "fix_gamma": "False"
      }, 
      "inputs": []
    }, 
    {
      "op": "null", 
      "name": "bn3b3_branch2c_moving_var", 
      "attr": {
        "__init__": "[\"one\", {}]", 
        "eps": "1e-05", 
        "fix_gamma": "False"
      }, 
      "inputs": []
    }, 
    {
      "op": "BatchNorm", 
      "name": "bn3b3_branch2c", 
      "attr": {
        "eps": "1e-05", 
        "fix_gamma": "False"
      }, 
      "inputs": [[260, 0, 0], [261, 0, 0], [262, 0, 0], [263, 0, 1], [264, 0, 1]]
    }, 
    {
      "op": "broadcast_add", 
      "name": "res3b3", 
      "inputs": [[234, 0, 0], [265, 0, 0]]
    }, 
    {
      "op": "Activation", 
      "name": "res3b3_relu", 
      "attr": {"act_type": "relu"}, 
      "inputs": [[266, 0, 0]]
    }, 
    {
      "op": "null", 
      "name": "res3b4_branch2a_weight", 
      "attr": {
        "kernel": "(1, 1, 1)", 
        "no_bias": "True", 
        "num_filter": "128", 
        "pad": "(0, 0, 0)", 
        "stride": "(1, 1, 1)"
      }, 
      "inputs": []
    }, 
    {
      "op": "Convolution", 
      "name": "res3b4_branch2a", 
      "attr": {
        "kernel": "(1, 1, 1)", 
        "no_bias": "True", 
        "num_filter": "128", 
        "pad": "(0, 0, 0)", 
        "stride": "(1, 1, 1)"
      }, 
      "inputs": [[267, 0, 0], [268, 0, 0]]
    }, 
    {
      "op": "null", 
      "name": "bn3b4_branch2a_gamma", 
      "attr": {
        "eps": "1e-05", 
        "fix_gamma": "False"
      }, 
      "inputs": []
    }, 
    {
      "op": "null", 
      "name": "bn3b4_branch2a_beta", 
      "attr": {
        "eps": "1e-05", 
        "fix_gamma": "False"
      }, 
      "inputs": []
    }, 
    {
      "op": "null", 
      "name": "bn3b4_branch2a_moving_mean", 
      "attr": {
        "__init__": "[\"zero\", {}]", 
        "eps": "1e-05", 
        "fix_gamma": "False"
      }, 
      "inputs": []
    }, 
    {
      "op": "null", 
      "name": "bn3b4_branch2a_moving_var", 
      "attr": {
        "__init__": "[\"one\", {}]", 
        "eps": "1e-05", 
        "fix_gamma": "False"
      }, 
      "inputs": []
    }, 
    {
      "op": "BatchNorm", 
      "name": "bn3b4_branch2a", 
      "attr": {
        "eps": "1e-05", 
        "fix_gamma": "False"
      }, 
      "inputs": [[269, 0, 0], [270, 0, 0], [271, 0, 0], [272, 0, 1], [273, 0, 1]]
    }, 
    {
      "op": "Activation", 
      "name": "res3b4_branch2a_relu", 
      "attr": {"act_type": "relu"}, 
      "inputs": [[274, 0, 0]]
    }, 
    {
      "op": "null", 
      "name": "res3b4_branch2b_weight", 
      "attr": {
        "kernel": "(1, 3, 3)", 
        "no_bias": "True", 
        "num_filter": "128", 
        "pad": "(0, 1, 1)", 
        "stride": "(1, 1, 1)"
      }, 
      "inputs": []
    }, 
    {
      "op": "Convolution", 
      "name": "res3b4_branch2b", 
      "attr": {
        "kernel": "(1, 3, 3)", 
        "no_bias": "True", 
        "num_filter": "128", 
        "pad": "(0, 1, 1)", 
        "stride": "(1, 1, 1)"
      }, 
      "inputs": [[275, 0, 0], [276, 0, 0]]
    }, 
    {
      "op": "null", 
      "name": "bn3b4_branch2b_gamma", 
      "attr": {
        "eps": "1e-05", 
        "fix_gamma": "False"
      }, 
      "inputs": []
    }, 
    {
      "op": "null", 
      "name": "bn3b4_branch2b_beta", 
      "attr": {
        "eps": "1e-05", 
        "fix_gamma": "False"
      }, 
      "inputs": []
    }, 
    {
      "op": "null", 
      "name": "bn3b4_branch2b_moving_mean", 
      "attr": {
        "__init__": "[\"zero\", {}]", 
        "eps": "1e-05", 
        "fix_gamma": "False"
      }, 
      "inputs": []
    }, 
    {
      "op": "null", 
      "name": "bn3b4_branch2b_moving_var", 
      "attr": {
        "__init__": "[\"one\", {}]", 
        "eps": "1e-05", 
        "fix_gamma": "False"
      }, 
      "inputs": []
    }, 
    {
      "op": "BatchNorm", 
      "name": "bn3b4_branch2b", 
      "attr": {
        "eps": "1e-05", 
        "fix_gamma": "False"
      }, 
      "inputs": [[277, 0, 0], [278, 0, 0], [279, 0, 0], [280, 0, 1], [281, 0, 1]]
    }, 
    {
      "op": "Activation", 
      "name": "res3b4_branch2b_relu", 
      "attr": {"act_type": "relu"}, 
      "inputs": [[282, 0, 0]]
    }, 
    {
      "op": "_mul_scalar", 
      "name": "_mulscalar8", 
      "attr": {"scalar": "1.0"}, 
      "inputs": [[283, 0, 0]]
    }, 
    {
      "op": "null", 
      "name": "res3b4_branch2b_t_weight", 
      "attr": {
        "kernel": "(3, 1, 1)", 
        "no_bias": "True", 
        "num_filter": "128", 
        "pad": "(1, 0, 0)", 
        "stride": "(1, 1, 1)"
      }, 
      "inputs": []
    }, 
    {
      "op": "Convolution", 
      "name": "res3b4_branch2b_t", 
      "attr": {
        "kernel": "(3, 1, 1)", 
        "no_bias": "True", 
        "num_filter": "128", 
        "pad": "(1, 0, 0)", 
        "stride": "(1, 1, 1)"
      }, 
      "inputs": [[275, 0, 0], [285, 0, 0]]
    }, 
    {
      "op": "null", 
      "name": "bn3b4_branch2b_t_gamma", 
      "attr": {
        "eps": "1e-05", 
        "fix_gamma": "False"
      }, 
      "inputs": []
    }, 
    {
      "op": "null", 
      "name": "bn3b4_branch2b_t_beta", 
      "attr": {
        "eps": "1e-05", 
        "fix_gamma": "False"
      }, 
      "inputs": []
    }, 
    {
      "op": "null", 
      "name": "bn3b4_branch2b_t_moving_mean", 
      "attr": {
        "__init__": "[\"zero\", {}]", 
        "eps": "1e-05", 
        "fix_gamma": "False"
      }, 
      "inputs": []
    }, 
    {
      "op": "null", 
      "name": "bn3b4_branch2b_t_moving_var", 
      "attr": {
        "__init__": "[\"one\", {}]", 
        "eps": "1e-05", 
        "fix_gamma": "False"
      }, 
      "inputs": []
    }, 
    {
      "op": "BatchNorm", 
      "name": "bn3b4_branch2b_t", 
      "attr": {
        "eps": "1e-05", 
        "fix_gamma": "False"
      }, 
      "inputs": [[286, 0, 0], [287, 0, 0], [288, 0, 0], [289, 0, 1], [290, 0, 1]]
    }, 
    {
      "op": "_mul_scalar", 
      "name": "_mulscalar9", 
      "attr": {"scalar": "1.0"}, 
      "inputs": [[291, 0, 0]]
    }, 
    {
      "op": "elemwise_add", 
      "name": "_plus4", 
      "inputs": [[284, 0, 0], [292, 0, 0]]
    }, 
    {
      "op": "Activation", 
      "name": "res3b4_branch2b_st_relu", 
      "attr": {"act_type": "relu"}, 
      "inputs": [[293, 0, 0]]
    }, 
    {
      "op": "null", 
      "name": "res3b4_branch2c_weight", 
      "attr": {
        "kernel": "(1, 1, 1)", 
        "no_bias": "True", 
        "num_filter": "512", 
        "pad": "(0, 0, 0)", 
        "stride": "(1, 1, 1)"
      }, 
      "inputs": []
    }, 
    {
      "op": "Convolution", 
      "name": "res3b4_branch2c", 
      "attr": {
        "kernel": "(1, 1, 1)", 
        "no_bias": "True", 
        "num_filter": "512", 
        "pad": "(0, 0, 0)", 
        "stride": "(1, 1, 1)"
      }, 
      "inputs": [[294, 0, 0], [295, 0, 0]]
    }, 
    {
      "op": "null", 
      "name": "bn3b4_branch2c_gamma", 
      "attr": {
        "eps": "1e-05", 
        "fix_gamma": "False"
      }, 
      "inputs": []
    }, 
    {
      "op": "null", 
      "name": "bn3b4_branch2c_beta", 
      "attr": {
        "eps": "1e-05", 
        "fix_gamma": "False"
      }, 
      "inputs": []
    }, 
    {
      "op": "null", 
      "name": "bn3b4_branch2c_moving_mean", 
      "attr": {
        "__init__": "[\"zero\", {}]", 
        "eps": "1e-05", 
        "fix_gamma": "False"
      }, 
      "inputs": []
    }, 
    {
      "op": "null", 
      "name": "bn3b4_branch2c_moving_var", 
      "attr": {
        "__init__": "[\"one\", {}]", 
        "eps": "1e-05", 
        "fix_gamma": "False"
      }, 
      "inputs": []
    }, 
    {
      "op": "BatchNorm", 
      "name": "bn3b4_branch2c", 
      "attr": {
        "eps": "1e-05", 
        "fix_gamma": "False"
      }, 
      "inputs": [[296, 0, 0], [297, 0, 0], [298, 0, 0], [299, 0, 1], [300, 0, 1]]
    }, 
    {
      "op": "broadcast_add", 
      "name": "res3b4", 
      "inputs": [[267, 0, 0], [301, 0, 0]]
    }, 
    {
      "op": "Activation", 
      "name": "res3b4_relu", 
      "attr": {"act_type": "relu"}, 
      "inputs": [[302, 0, 0]]
    }, 
    {
      "op": "null", 
      "name": "res3b5_branch2a_weight", 
      "attr": {
        "kernel": "(1, 1, 1)", 
        "no_bias": "True", 
        "num_filter": "128", 
        "pad": "(0, 0, 0)", 
        "stride": "(1, 1, 1)"
      }, 
      "inputs": []
    }, 
    {
      "op": "Convolution", 
      "name": "res3b5_branch2a", 
      "attr": {
        "kernel": "(1, 1, 1)", 
        "no_bias": "True", 
        "num_filter": "128", 
        "pad": "(0, 0, 0)", 
        "stride": "(1, 1, 1)"
      }, 
      "inputs": [[303, 0, 0], [304, 0, 0]]
    }, 
    {
      "op": "null", 
      "name": "bn3b5_branch2a_gamma", 
      "attr": {
        "eps": "1e-05", 
        "fix_gamma": "False"
      }, 
      "inputs": []
    }, 
    {
      "op": "null", 
      "name": "bn3b5_branch2a_beta", 
      "attr": {
        "eps": "1e-05", 
        "fix_gamma": "False"
      }, 
      "inputs": []
    }, 
    {
      "op": "null", 
      "name": "bn3b5_branch2a_moving_mean", 
      "attr": {
        "__init__": "[\"zero\", {}]", 
        "eps": "1e-05", 
        "fix_gamma": "False"
      }, 
      "inputs": []
    }, 
    {
      "op": "null", 
      "name": "bn3b5_branch2a_moving_var", 
      "attr": {
        "__init__": "[\"one\", {}]", 
        "eps": "1e-05", 
        "fix_gamma": "False"
      }, 
      "inputs": []
    }, 
    {
      "op": "BatchNorm", 
      "name": "bn3b5_branch2a", 
      "attr": {
        "eps": "1e-05", 
        "fix_gamma": "False"
      }, 
      "inputs": [[305, 0, 0], [306, 0, 0], [307, 0, 0], [308, 0, 1], [309, 0, 1]]
    }, 
    {
      "op": "Activation", 
      "name": "res3b5_branch2a_relu", 
      "attr": {"act_type": "relu"}, 
      "inputs": [[310, 0, 0]]
    }, 
    {
      "op": "null", 
      "name": "res3b5_branch2b_weight", 
      "attr": {
        "kernel": "(1, 3, 3)", 
        "no_bias": "True", 
        "num_filter": "128", 
        "pad": "(0, 1, 1)", 
        "stride": "(1, 1, 1)"
      }, 
      "inputs": []
    }, 
    {
      "op": "Convolution", 
      "name": "res3b5_branch2b", 
      "attr": {
        "kernel": "(1, 3, 3)", 
        "no_bias": "True", 
        "num_filter": "128", 
        "pad": "(0, 1, 1)", 
        "stride": "(1, 1, 1)"
      }, 
      "inputs": [[311, 0, 0], [312, 0, 0]]
    }, 
    {
      "op": "null", 
      "name": "bn3b5_branch2b_gamma", 
      "attr": {
        "eps": "1e-05", 
        "fix_gamma": "False"
      }, 
      "inputs": []
    }, 
    {
      "op": "null", 
      "name": "bn3b5_branch2b_beta", 
      "attr": {
        "eps": "1e-05", 
        "fix_gamma": "False"
      }, 
      "inputs": []
    }, 
    {
      "op": "null", 
      "name": "bn3b5_branch2b_moving_mean", 
      "attr": {
        "__init__": "[\"zero\", {}]", 
        "eps": "1e-05", 
        "fix_gamma": "False"
      }, 
      "inputs": []
    }, 
    {
      "op": "null", 
      "name": "bn3b5_branch2b_moving_var", 
      "attr": {
        "__init__": "[\"one\", {}]", 
        "eps": "1e-05", 
        "fix_gamma": "False"
      }, 
      "inputs": []
    }, 
    {
      "op": "BatchNorm", 
      "name": "bn3b5_branch2b", 
      "attr": {
        "eps": "1e-05", 
        "fix_gamma": "False"
      }, 
      "inputs": [[313, 0, 0], [314, 0, 0], [315, 0, 0], [316, 0, 1], [317, 0, 1]]
    }, 
    {
      "op": "Activation", 
      "name": "res3b5_branch2b_relu", 
      "attr": {"act_type": "relu"}, 
      "inputs": [[318, 0, 0]]
    }, 
    {
      "op": "_mul_scalar", 
      "name": "_mulscalar10", 
      "attr": {"scalar": "0.5"}, 
      "inputs": [[319, 0, 0]]
    }, 
    {
      "op": "null", 
      "name": "res3b5_branch2b_t_weight", 
      "attr": {
        "kernel": "(3, 1, 1)", 
        "no_bias": "True", 
        "num_filter": "128", 
        "pad": "(1, 0, 0)", 
        "stride": "(1, 1, 1)"
      }, 
      "inputs": []
    }, 
    {
      "op": "Convolution", 
      "name": "res3b5_branch2b_t", 
      "attr": {
        "kernel": "(3, 1, 1)", 
        "no_bias": "True", 
        "num_filter": "128", 
        "pad": "(1, 0, 0)", 
        "stride": "(1, 1, 1)"
      }, 
      "inputs": [[319, 0, 0], [321, 0, 0]]
    }, 
    {
      "op": "null", 
      "name": "bn3b5_branch2b_t_gamma", 
      "attr": {
        "eps": "1e-05", 
        "fix_gamma": "False"
      }, 
      "inputs": []
    }, 
    {
      "op": "null", 
      "name": "bn3b5_branch2b_t_beta", 
      "attr": {
        "eps": "1e-05", 
        "fix_gamma": "False"
      }, 
      "inputs": []
    }, 
    {
      "op": "null", 
      "name": "bn3b5_branch2b_t_moving_mean", 
      "attr": {
        "__init__": "[\"zero\", {}]", 
        "eps": "1e-05", 
        "fix_gamma": "False"
      }, 
      "inputs": []
    }, 
    {
      "op": "null", 
      "name": "bn3b5_branch2b_t_moving_var", 
      "attr": {
        "__init__": "[\"one\", {}]", 
        "eps": "1e-05", 
        "fix_gamma": "False"
      }, 
      "inputs": []
    }, 
    {
      "op": "BatchNorm", 
      "name": "bn3b5_branch2b_t", 
      "attr": {
        "eps": "1e-05", 
        "fix_gamma": "False"
      }, 
      "inputs": [[322, 0, 0], [323, 0, 0], [324, 0, 0], [325, 0, 1], [326, 0, 1]]
    }, 
    {
      "op": "_mul_scalar", 
      "name": "_mulscalar11", 
      "attr": {"scalar": "0.5"}, 
      "inputs": [[327, 0, 0]]
    }, 
    {
      "op": "elemwise_add", 
      "name": "_plus5", 
      "inputs": [[320, 0, 0], [328, 0, 0]]
    }, 
    {
      "op": "Activation", 
      "name": "res3b5_branch2b_st_relu", 
      "attr": {"act_type": "relu"}, 
      "inputs": [[329, 0, 0]]
    }, 
    {
      "op": "null", 
      "name": "res3b5_branch2c_weight", 
      "attr": {
        "kernel": "(1, 1, 1)", 
        "no_bias": "True", 
        "num_filter": "512", 
        "pad": "(0, 0, 0)", 
        "stride": "(1, 1, 1)"
      }, 
      "inputs": []
    }, 
    {
      "op": "Convolution", 
      "name": "res3b5_branch2c", 
      "attr": {
        "kernel": "(1, 1, 1)", 
        "no_bias": "True", 
        "num_filter": "512", 
        "pad": "(0, 0, 0)", 
        "stride": "(1, 1, 1)"
      }, 
      "inputs": [[330, 0, 0], [331, 0, 0]]
    }, 
    {
      "op": "null", 
      "name": "bn3b5_branch2c_gamma", 
      "attr": {
        "eps": "1e-05", 
        "fix_gamma": "False"
      }, 
      "inputs": []
    }, 
    {
      "op": "null", 
      "name": "bn3b5_branch2c_beta", 
      "attr": {
        "eps": "1e-05", 
        "fix_gamma": "False"
      }, 
      "inputs": []
    }, 
    {
      "op": "null", 
      "name": "bn3b5_branch2c_moving_mean", 
      "attr": {
        "__init__": "[\"zero\", {}]", 
        "eps": "1e-05", 
        "fix_gamma": "False"
      }, 
      "inputs": []
    }, 
    {
      "op": "null", 
      "name": "bn3b5_branch2c_moving_var", 
      "attr": {
        "__init__": "[\"one\", {}]", 
        "eps": "1e-05", 
        "fix_gamma": "False"
      }, 
      "inputs": []
    }, 
    {
      "op": "BatchNorm", 
      "name": "bn3b5_branch2c", 
      "attr": {
        "eps": "1e-05", 
        "fix_gamma": "False"
      }, 
      "inputs": [[332, 0, 0], [333, 0, 0], [334, 0, 0], [335, 0, 1], [336, 0, 1]]
    }, 
    {
      "op": "broadcast_add", 
      "name": "res3b5", 
      "inputs": [[303, 0, 0], [337, 0, 0]]
    }, 
    {
      "op": "Activation", 
      "name": "res3b5_relu", 
      "attr": {"act_type": "relu"}, 
      "inputs": [[338, 0, 0]]
    }, 
    {
      "op": "null", 
      "name": "res3b6_branch2a_weight", 
      "attr": {
        "kernel": "(1, 1, 1)", 
        "no_bias": "True", 
        "num_filter": "128", 
        "pad": "(0, 0, 0)", 
        "stride": "(1, 1, 1)"
      }, 
      "inputs": []
    }, 
    {
      "op": "Convolution", 
      "name": "res3b6_branch2a", 
      "attr": {
        "kernel": "(1, 1, 1)", 
        "no_bias": "True", 
        "num_filter": "128", 
        "pad": "(0, 0, 0)", 
        "stride": "(1, 1, 1)"
      }, 
      "inputs": [[339, 0, 0], [340, 0, 0]]
    }, 
    {
      "op": "null", 
      "name": "bn3b6_branch2a_gamma", 
      "attr": {
        "eps": "1e-05", 
        "fix_gamma": "False"
      }, 
      "inputs": []
    }, 
    {
      "op": "null", 
      "name": "bn3b6_branch2a_beta", 
      "attr": {
        "eps": "1e-05", 
        "fix_gamma": "False"
      }, 
      "inputs": []
    }, 
    {
      "op": "null", 
      "name": "bn3b6_branch2a_moving_mean", 
      "attr": {
        "__init__": "[\"zero\", {}]", 
        "eps": "1e-05", 
        "fix_gamma": "False"
      }, 
      "inputs": []
    }, 
    {
      "op": "null", 
      "name": "bn3b6_branch2a_moving_var", 
      "attr": {
        "__init__": "[\"one\", {}]", 
        "eps": "1e-05", 
        "fix_gamma": "False"
      }, 
      "inputs": []
    }, 
    {
      "op": "BatchNorm", 
      "name": "bn3b6_branch2a", 
      "attr": {
        "eps": "1e-05", 
        "fix_gamma": "False"
      }, 
      "inputs": [[341, 0, 0], [342, 0, 0], [343, 0, 0], [344, 0, 1], [345, 0, 1]]
    }, 
    {
      "op": "Activation", 
      "name": "res3b6_branch2a_relu", 
      "attr": {"act_type": "relu"}, 
      "inputs": [[346, 0, 0]]
    }, 
    {
      "op": "null", 
      "name": "res3b6_branch2b_weight", 
      "attr": {
        "kernel": "(1, 3, 3)", 
        "no_bias": "True", 
        "num_filter": "128", 
        "pad": "(0, 1, 1)", 
        "stride": "(1, 1, 1)"
      }, 
      "inputs": []
    }, 
    {
      "op": "Convolution", 
      "name": "res3b6_branch2b", 
      "attr": {
        "kernel": "(1, 3, 3)", 
        "no_bias": "True", 
        "num_filter": "128", 
        "pad": "(0, 1, 1)", 
        "stride": "(1, 1, 1)"
      }, 
      "inputs": [[347, 0, 0], [348, 0, 0]]
    }, 
    {
      "op": "null", 
      "name": "bn3b6_branch2b_gamma", 
      "attr": {
        "eps": "1e-05", 
        "fix_gamma": "False"
      }, 
      "inputs": []
    }, 
    {
      "op": "null", 
      "name": "bn3b6_branch2b_beta", 
      "attr": {
        "eps": "1e-05", 
        "fix_gamma": "False"
      }, 
      "inputs": []
    }, 
    {
      "op": "null", 
      "name": "bn3b6_branch2b_moving_mean", 
      "attr": {
        "__init__": "[\"zero\", {}]", 
        "eps": "1e-05", 
        "fix_gamma": "False"
      }, 
      "inputs": []
    }, 
    {
      "op": "null", 
      "name": "bn3b6_branch2b_moving_var", 
      "attr": {
        "__init__": "[\"one\", {}]", 
        "eps": "1e-05", 
        "fix_gamma": "False"
      }, 
      "inputs": []
    }, 
    {
      "op": "BatchNorm", 
      "name": "bn3b6_branch2b", 
      "attr": {
        "eps": "1e-05", 
        "fix_gamma": "False"
      }, 
      "inputs": [[349, 0, 0], [350, 0, 0], [351, 0, 0], [352, 0, 1], [353, 0, 1]]
    }, 
    {
      "op": "Activation", 
      "name": "res3b6_branch2b_relu", 
      "attr": {"act_type": "relu"}, 
      "inputs": [[354, 0, 0]]
    }, 
    {
      "op": "null", 
      "name": "res3b6_branch2b_t_weight", 
      "attr": {
        "kernel": "(3, 1, 1)", 
        "no_bias": "True", 
        "num_filter": "128", 
        "pad": "(1, 0, 0)", 
        "stride": "(1, 1, 1)"
      }, 
      "inputs": []
    }, 
    {
      "op": "Convolution", 
      "name": "res3b6_branch2b_t", 
      "attr": {
        "kernel": "(3, 1, 1)", 
        "no_bias": "True", 
        "num_filter": "128", 
        "pad": "(1, 0, 0)", 
        "stride": "(1, 1, 1)"
      }, 
      "inputs": [[355, 0, 0], [356, 0, 0]]
    }, 
    {
      "op": "null", 
      "name": "bn3b6_branch2b_t_gamma", 
      "attr": {
        "eps": "1e-05", 
        "fix_gamma": "False"
      }, 
      "inputs": []
    }, 
    {
      "op": "null", 
      "name": "bn3b6_branch2b_t_beta", 
      "attr": {
        "eps": "1e-05", 
        "fix_gamma": "False"
      }, 
      "inputs": []
    }, 
    {
      "op": "null", 
      "name": "bn3b6_branch2b_t_moving_mean", 
      "attr": {
        "__init__": "[\"zero\", {}]", 
        "eps": "1e-05", 
        "fix_gamma": "False"
      }, 
      "inputs": []
    }, 
    {
      "op": "null", 
      "name": "bn3b6_branch2b_t_moving_var", 
      "attr": {
        "__init__": "[\"one\", {}]", 
        "eps": "1e-05", 
        "fix_gamma": "False"
      }, 
      "inputs": []
    }, 
    {
      "op": "BatchNorm", 
      "name": "bn3b6_branch2b_t", 
      "attr": {
        "eps": "1e-05", 
        "fix_gamma": "False"
      }, 
      "inputs": [[357, 0, 0], [358, 0, 0], [359, 0, 0], [360, 0, 1], [361, 0, 1]]
    }, 
    {
      "op": "Activation", 
      "name": "res3b6_branch2b_t_relu", 
      "attr": {"act_type": "relu"}, 
      "inputs": [[362, 0, 0]]
    }, 
    {
      "op": "null", 
      "name": "res3b6_branch2c_weight", 
      "attr": {
        "kernel": "(1, 1, 1)", 
        "no_bias": "True", 
        "num_filter": "512", 
        "pad": "(0, 0, 0)", 
        "stride": "(1, 1, 1)"
      }, 
      "inputs": []
    }, 
    {
      "op": "Convolution", 
      "name": "res3b6_branch2c", 
      "attr": {
        "kernel": "(1, 1, 1)", 
        "no_bias": "True", 
        "num_filter": "512", 
        "pad": "(0, 0, 0)", 
        "stride": "(1, 1, 1)"
      }, 
      "inputs": [[363, 0, 0], [364, 0, 0]]
    }, 
    {
      "op": "null", 
      "name": "bn3b6_branch2c_gamma", 
      "attr": {
        "eps": "1e-05", 
        "fix_gamma": "False"
      }, 
      "inputs": []
    }, 
    {
      "op": "null", 
      "name": "bn3b6_branch2c_beta", 
      "attr": {
        "eps": "1e-05", 
        "fix_gamma": "False"
      }, 
      "inputs": []
    }, 
    {
      "op": "null", 
      "name": "bn3b6_branch2c_moving_mean", 
      "attr": {
        "__init__": "[\"zero\", {}]", 
        "eps": "1e-05", 
        "fix_gamma": "False"
      }, 
      "inputs": []
    }, 
    {
      "op": "null", 
      "name": "bn3b6_branch2c_moving_var", 
      "attr": {
        "__init__": "[\"one\", {}]", 
        "eps": "1e-05", 
        "fix_gamma": "False"
      }, 
      "inputs": []
    }, 
    {
      "op": "BatchNorm", 
      "name": "bn3b6_branch2c", 
      "attr": {
        "eps": "1e-05", 
        "fix_gamma": "False"
      }, 
      "inputs": [[365, 0, 0], [366, 0, 0], [367, 0, 0], [368, 0, 1], [369, 0, 1]]
    }, 
    {
      "op": "broadcast_add", 
      "name": "res3b6", 
      "inputs": [[339, 0, 0], [370, 0, 0]]
    }, 
    {
      "op": "Activation", 
      "name": "res3b6_relu", 
      "attr": {"act_type": "relu"}, 
      "inputs": [[371, 0, 0]]
    }, 
    {
      "op": "null", 
      "name": "res3b7_branch2a_weight", 
      "attr": {
        "kernel": "(1, 1, 1)", 
        "no_bias": "True", 
        "num_filter": "128", 
        "pad": "(0, 0, 0)", 
        "stride": "(1, 1, 1)"
      }, 
      "inputs": []
    }, 
    {
      "op": "Convolution", 
      "name": "res3b7_branch2a", 
      "attr": {
        "kernel": "(1, 1, 1)", 
        "no_bias": "True", 
        "num_filter": "128", 
        "pad": "(0, 0, 0)", 
        "stride": "(1, 1, 1)"
      }, 
      "inputs": [[372, 0, 0], [373, 0, 0]]
    }, 
    {
      "op": "null", 
      "name": "bn3b7_branch2a_gamma", 
      "attr": {
        "eps": "1e-05", 
        "fix_gamma": "False"
      }, 
      "inputs": []
    }, 
    {
      "op": "null", 
      "name": "bn3b7_branch2a_beta", 
      "attr": {
        "eps": "1e-05", 
        "fix_gamma": "False"
      }, 
      "inputs": []
    }, 
    {
      "op": "null", 
      "name": "bn3b7_branch2a_moving_mean", 
      "attr": {
        "__init__": "[\"zero\", {}]", 
        "eps": "1e-05", 
        "fix_gamma": "False"
      }, 
      "inputs": []
    }, 
    {
      "op": "null", 
      "name": "bn3b7_branch2a_moving_var", 
      "attr": {
        "__init__": "[\"one\", {}]", 
        "eps": "1e-05", 
        "fix_gamma": "False"
      }, 
      "inputs": []
    }, 
    {
      "op": "BatchNorm", 
      "name": "bn3b7_branch2a", 
      "attr": {
        "eps": "1e-05", 
        "fix_gamma": "False"
      }, 
      "inputs": [[374, 0, 0], [375, 0, 0], [376, 0, 0], [377, 0, 1], [378, 0, 1]]
    }, 
    {
      "op": "Activation", 
      "name": "res3b7_branch2a_relu", 
      "attr": {"act_type": "relu"}, 
      "inputs": [[379, 0, 0]]
    }, 
    {
      "op": "null", 
      "name": "res3b7_branch2b_weight", 
      "attr": {
        "kernel": "(1, 3, 3)", 
        "no_bias": "True", 
        "num_filter": "128", 
        "pad": "(0, 1, 1)", 
        "stride": "(1, 1, 1)"
      }, 
      "inputs": []
    }, 
    {
      "op": "Convolution", 
      "name": "res3b7_branch2b", 
      "attr": {
        "kernel": "(1, 3, 3)", 
        "no_bias": "True", 
        "num_filter": "128", 
        "pad": "(0, 1, 1)", 
        "stride": "(1, 1, 1)"
      }, 
      "inputs": [[380, 0, 0], [381, 0, 0]]
    }, 
    {
      "op": "null", 
      "name": "bn3b7_branch2b_gamma", 
      "attr": {
        "eps": "1e-05", 
        "fix_gamma": "False"
      }, 
      "inputs": []
    }, 
    {
      "op": "null", 
      "name": "bn3b7_branch2b_beta", 
      "attr": {
        "eps": "1e-05", 
        "fix_gamma": "False"
      }, 
      "inputs": []
    }, 
    {
      "op": "null", 
      "name": "bn3b7_branch2b_moving_mean", 
      "attr": {
        "__init__": "[\"zero\", {}]", 
        "eps": "1e-05", 
        "fix_gamma": "False"
      }, 
      "inputs": []
    }, 
    {
      "op": "null", 
      "name": "bn3b7_branch2b_moving_var", 
      "attr": {
        "__init__": "[\"one\", {}]", 
        "eps": "1e-05", 
        "fix_gamma": "False"
      }, 
      "inputs": []
    }, 
    {
      "op": "BatchNorm", 
      "name": "bn3b7_branch2b", 
      "attr": {
        "eps": "1e-05", 
        "fix_gamma": "False"
      }, 
      "inputs": [[382, 0, 0], [383, 0, 0], [384, 0, 0], [385, 0, 1], [386, 0, 1]]
    }, 
    {
      "op": "Activation", 
      "name": "res3b7_branch2b_relu", 
      "attr": {"act_type": "relu"}, 
      "inputs": [[387, 0, 0]]
    }, 
    {
      "op": "_mul_scalar", 
      "name": "_mulscalar12", 
      "attr": {"scalar": "1.0"}, 
      "inputs": [[388, 0, 0]]
    }, 
    {
      "op": "null", 
      "name": "res3b7_branch2b_t_weight", 
      "attr": {
        "kernel": "(3, 1, 1)", 
        "no_bias": "True", 
        "num_filter": "128", 
        "pad": "(1, 0, 0)", 
        "stride": "(1, 1, 1)"
      }, 
      "inputs": []
    }, 
    {
      "op": "Convolution", 
      "name": "res3b7_branch2b_t", 
      "attr": {
        "kernel": "(3, 1, 1)", 
        "no_bias": "True", 
        "num_filter": "128", 
        "pad": "(1, 0, 0)", 
        "stride": "(1, 1, 1)"
      }, 
      "inputs": [[380, 0, 0], [390, 0, 0]]
    }, 
    {
      "op": "null", 
      "name": "bn3b7_branch2b_t_gamma", 
      "attr": {
        "eps": "1e-05", 
        "fix_gamma": "False"
      }, 
      "inputs": []
    }, 
    {
      "op": "null", 
      "name": "bn3b7_branch2b_t_beta", 
      "attr": {
        "eps": "1e-05", 
        "fix_gamma": "False"
      }, 
      "inputs": []
    }, 
    {
      "op": "null", 
      "name": "bn3b7_branch2b_t_moving_mean", 
      "attr": {
        "__init__": "[\"zero\", {}]", 
        "eps": "1e-05", 
        "fix_gamma": "False"
      }, 
      "inputs": []
    }, 
    {
      "op": "null", 
      "name": "bn3b7_branch2b_t_moving_var", 
      "attr": {
        "__init__": "[\"one\", {}]", 
        "eps": "1e-05", 
        "fix_gamma": "False"
      }, 
      "inputs": []
    }, 
    {
      "op": "BatchNorm", 
      "name": "bn3b7_branch2b_t", 
      "attr": {
        "eps": "1e-05", 
        "fix_gamma": "False"
      }, 
      "inputs": [[391, 0, 0], [392, 0, 0], [393, 0, 0], [394, 0, 1], [395, 0, 1]]
    }, 
    {
      "op": "_mul_scalar", 
      "name": "_mulscalar13", 
      "attr": {"scalar": "1.0"}, 
      "inputs": [[396, 0, 0]]
    }, 
    {
      "op": "elemwise_add", 
      "name": "_plus6", 
      "inputs": [[389, 0, 0], [397, 0, 0]]
    }, 
    {
      "op": "Activation", 
      "name": "res3b7_branch2b_st_relu", 
      "attr": {"act_type": "relu"}, 
      "inputs": [[398, 0, 0]]
    }, 
    {
      "op": "null", 
      "name": "res3b7_branch2c_weight", 
      "attr": {
        "kernel": "(1, 1, 1)", 
        "no_bias": "True", 
        "num_filter": "512", 
        "pad": "(0, 0, 0)", 
        "stride": "(1, 1, 1)"
      }, 
      "inputs": []
    }, 
    {
      "op": "Convolution", 
      "name": "res3b7_branch2c", 
      "attr": {
        "kernel": "(1, 1, 1)", 
        "no_bias": "True", 
        "num_filter": "512", 
        "pad": "(0, 0, 0)", 
        "stride": "(1, 1, 1)"
      }, 
      "inputs": [[399, 0, 0], [400, 0, 0]]
    }, 
    {
      "op": "null", 
      "name": "bn3b7_branch2c_gamma", 
      "attr": {
        "eps": "1e-05", 
        "fix_gamma": "False"
      }, 
      "inputs": []
    }, 
    {
      "op": "null", 
      "name": "bn3b7_branch2c_beta", 
      "attr": {
        "eps": "1e-05", 
        "fix_gamma": "False"
      }, 
      "inputs": []
    }, 
    {
      "op": "null", 
      "name": "bn3b7_branch2c_moving_mean", 
      "attr": {
        "__init__": "[\"zero\", {}]", 
        "eps": "1e-05", 
        "fix_gamma": "False"
      }, 
      "inputs": []
    }, 
    {
      "op": "null", 
      "name": "bn3b7_branch2c_moving_var", 
      "attr": {
        "__init__": "[\"one\", {}]", 
        "eps": "1e-05", 
        "fix_gamma": "False"
      }, 
      "inputs": []
    }, 
    {
      "op": "BatchNorm", 
      "name": "bn3b7_branch2c", 
      "attr": {
        "eps": "1e-05", 
        "fix_gamma": "False"
      }, 
      "inputs": [[401, 0, 0], [402, 0, 0], [403, 0, 0], [404, 0, 1], [405, 0, 1]]
    }, 
    {
      "op": "broadcast_add", 
      "name": "res3b7", 
      "inputs": [[372, 0, 0], [406, 0, 0]]
    }, 
    {
      "op": "Activation", 
      "name": "res3b7_relu", 
      "attr": {"act_type": "relu"}, 
      "inputs": [[407, 0, 0]]
    }, 
    {
      "op": "Pooling", 
      "name": "_4a_pool", 
      "attr": {
        "kernel": "(2, 1, 1)", 
        "pad": "(0, 0, 0)", 
        "pool_type": "max", 
        "pooling_convention": "full", 
        "stride": "(2, 1, 1)"
      }, 
      "inputs": [[408, 0, 0]]
    }, 
    {
      "op": "null", 
      "name": "res4a_branch1_weight", 
      "attr": {
        "kernel": "(1, 1, 1)", 
        "no_bias": "True", 
        "num_filter": "1024", 
        "pad": "(0, 0, 0)", 
        "stride": "(1, 2, 2)"
      }, 
      "inputs": []
    }, 
    {
      "op": "Convolution", 
      "name": "res4a_branch1", 
      "attr": {
        "kernel": "(1, 1, 1)", 
        "no_bias": "True", 
        "num_filter": "1024", 
        "pad": "(0, 0, 0)", 
        "stride": "(1, 2, 2)"
      }, 
      "inputs": [[409, 0, 0], [410, 0, 0]]
    }, 
    {
      "op": "null", 
      "name": "bn4a_branch1_gamma", 
      "attr": {
        "eps": "1e-05", 
        "fix_gamma": "False"
      }, 
      "inputs": []
    }, 
    {
      "op": "null", 
      "name": "bn4a_branch1_beta", 
      "attr": {
        "eps": "1e-05", 
        "fix_gamma": "False"
      }, 
      "inputs": []
    }, 
    {
      "op": "null", 
      "name": "bn4a_branch1_moving_mean", 
      "attr": {
        "__init__": "[\"zero\", {}]", 
        "eps": "1e-05", 
        "fix_gamma": "False"
      }, 
      "inputs": []
    }, 
    {
      "op": "null", 
      "name": "bn4a_branch1_moving_var", 
      "attr": {
        "__init__": "[\"one\", {}]", 
        "eps": "1e-05", 
        "fix_gamma": "False"
      }, 
      "inputs": []
    }, 
    {
      "op": "BatchNorm", 
      "name": "bn4a_branch1", 
      "attr": {
        "eps": "1e-05", 
        "fix_gamma": "False"
      }, 
      "inputs": [[411, 0, 0], [412, 0, 0], [413, 0, 0], [414, 0, 1], [415, 0, 1]]
    }, 
    {
      "op": "null", 
      "name": "res4a_branch2a_weight", 
      "attr": {
        "kernel": "(1, 1, 1)", 
        "no_bias": "True", 
        "num_filter": "256", 
        "pad": "(0, 0, 0)", 
        "stride": "(1, 2, 2)"
      }, 
      "inputs": []
    }, 
    {
      "op": "Convolution", 
      "name": "res4a_branch2a", 
      "attr": {
        "kernel": "(1, 1, 1)", 
        "no_bias": "True", 
        "num_filter": "256", 
        "pad": "(0, 0, 0)", 
        "stride": "(1, 2, 2)"
      }, 
      "inputs": [[409, 0, 0], [417, 0, 0]]
    }, 
    {
      "op": "null", 
      "name": "bn4a_branch2a_gamma", 
      "attr": {
        "eps": "1e-05", 
        "fix_gamma": "False"
      }, 
      "inputs": []
    }, 
    {
      "op": "null", 
      "name": "bn4a_branch2a_beta", 
      "attr": {
        "eps": "1e-05", 
        "fix_gamma": "False"
      }, 
      "inputs": []
    }, 
    {
      "op": "null", 
      "name": "bn4a_branch2a_moving_mean", 
      "attr": {
        "__init__": "[\"zero\", {}]", 
        "eps": "1e-05", 
        "fix_gamma": "False"
      }, 
      "inputs": []
    }, 
    {
      "op": "null", 
      "name": "bn4a_branch2a_moving_var", 
      "attr": {
        "__init__": "[\"one\", {}]", 
        "eps": "1e-05", 
        "fix_gamma": "False"
      }, 
      "inputs": []
    }, 
    {
      "op": "BatchNorm", 
      "name": "bn4a_branch2a", 
      "attr": {
        "eps": "1e-05", 
        "fix_gamma": "False"
      }, 
      "inputs": [[418, 0, 0], [419, 0, 0], [420, 0, 0], [421, 0, 1], [422, 0, 1]]
    }, 
    {
      "op": "Activation", 
      "name": "res4a_branch2a_relu", 
      "attr": {"act_type": "relu"}, 
      "inputs": [[423, 0, 0]]
    }, 
    {
      "op": "null", 
      "name": "res4a_branch2b_weight", 
      "attr": {
        "kernel": "(1, 3, 3)", 
        "no_bias": "True", 
        "num_filter": "256", 
        "pad": "(0, 1, 1)", 
        "stride": "(1, 1, 1)"
      }, 
      "inputs": []
    }, 
    {
      "op": "Convolution", 
      "name": "res4a_branch2b", 
      "attr": {
        "kernel": "(1, 3, 3)", 
        "no_bias": "True", 
        "num_filter": "256", 
        "pad": "(0, 1, 1)", 
        "stride": "(1, 1, 1)"
      }, 
      "inputs": [[424, 0, 0], [425, 0, 0]]
    }, 
    {
      "op": "null", 
      "name": "bn4a_branch2b_gamma", 
      "attr": {
        "eps": "1e-05", 
        "fix_gamma": "False"
      }, 
      "inputs": []
    }, 
    {
      "op": "null", 
      "name": "bn4a_branch2b_beta", 
      "attr": {
        "eps": "1e-05", 
        "fix_gamma": "False"
      }, 
      "inputs": []
    }, 
    {
      "op": "null", 
      "name": "bn4a_branch2b_moving_mean", 
      "attr": {
        "__init__": "[\"zero\", {}]", 
        "eps": "1e-05", 
        "fix_gamma": "False"
      }, 
      "inputs": []
    }, 
    {
      "op": "null", 
      "name": "bn4a_branch2b_moving_var", 
      "attr": {
        "__init__": "[\"one\", {}]", 
        "eps": "1e-05", 
        "fix_gamma": "False"
      }, 
      "inputs": []
    }, 
    {
      "op": "BatchNorm", 
      "name": "bn4a_branch2b", 
      "attr": {
        "eps": "1e-05", 
        "fix_gamma": "False"
      }, 
      "inputs": [[426, 0, 0], [427, 0, 0], [428, 0, 0], [429, 0, 1], [430, 0, 1]]
    }, 
    {
      "op": "Activation", 
      "name": "res4a_branch2b_relu", 
      "attr": {"act_type": "relu"}, 
      "inputs": [[431, 0, 0]]
    }, 
    {
      "op": "_mul_scalar", 
      "name": "_mulscalar14", 
      "attr": {"scalar": "0.5"}, 
      "inputs": [[432, 0, 0]]
    }, 
    {
      "op": "null", 
      "name": "res4a_branch2b_t_weight", 
      "attr": {
        "kernel": "(3, 1, 1)", 
        "no_bias": "True", 
        "num_filter": "256", 
        "pad": "(1, 0, 0)", 
        "stride": "(1, 1, 1)"
      }, 
      "inputs": []
    }, 
    {
      "op": "Convolution", 
      "name": "res4a_branch2b_t", 
      "attr": {
        "kernel": "(3, 1, 1)", 
        "no_bias": "True", 
        "num_filter": "256", 
        "pad": "(1, 0, 0)", 
        "stride": "(1, 1, 1)"
      }, 
      "inputs": [[432, 0, 0], [434, 0, 0]]
    }, 
    {
      "op": "null", 
      "name": "bn4a_branch2b_t_gamma", 
      "attr": {
        "eps": "1e-05", 
        "fix_gamma": "False"
      }, 
      "inputs": []
    }, 
    {
      "op": "null", 
      "name": "bn4a_branch2b_t_beta", 
      "attr": {
        "eps": "1e-05", 
        "fix_gamma": "False"
      }, 
      "inputs": []
    }, 
    {
      "op": "null", 
      "name": "bn4a_branch2b_t_moving_mean", 
      "attr": {
        "__init__": "[\"zero\", {}]", 
        "eps": "1e-05", 
        "fix_gamma": "False"
      }, 
      "inputs": []
    }, 
    {
      "op": "null", 
      "name": "bn4a_branch2b_t_moving_var", 
      "attr": {
        "__init__": "[\"one\", {}]", 
        "eps": "1e-05", 
        "fix_gamma": "False"
      }, 
      "inputs": []
    }, 
    {
      "op": "BatchNorm", 
      "name": "bn4a_branch2b_t", 
      "attr": {
        "eps": "1e-05", 
        "fix_gamma": "False"
      }, 
      "inputs": [[435, 0, 0], [436, 0, 0], [437, 0, 0], [438, 0, 1], [439, 0, 1]]
    }, 
    {
      "op": "_mul_scalar", 
      "name": "_mulscalar15", 
      "attr": {"scalar": "0.5"}, 
      "inputs": [[440, 0, 0]]
    }, 
    {
      "op": "elemwise_add", 
      "name": "_plus7", 
      "inputs": [[433, 0, 0], [441, 0, 0]]
    }, 
    {
      "op": "Activation", 
      "name": "res4a_branch2b_st_relu", 
      "attr": {"act_type": "relu"}, 
      "inputs": [[442, 0, 0]]
    }, 
    {
      "op": "null", 
      "name": "res4a_branch2c_weight", 
      "attr": {
        "kernel": "(1, 1, 1)", 
        "no_bias": "True", 
        "num_filter": "1024", 
        "pad": "(0, 0, 0)", 
        "stride": "(1, 1, 1)"
      }, 
      "inputs": []
    }, 
    {
      "op": "Convolution", 
      "name": "res4a_branch2c", 
      "attr": {
        "kernel": "(1, 1, 1)", 
        "no_bias": "True", 
        "num_filter": "1024", 
        "pad": "(0, 0, 0)", 
        "stride": "(1, 1, 1)"
      }, 
      "inputs": [[443, 0, 0], [444, 0, 0]]
    }, 
    {
      "op": "null", 
      "name": "bn4a_branch2c_gamma", 
      "attr": {
        "eps": "1e-05", 
        "fix_gamma": "False"
      }, 
      "inputs": []
    }, 
    {
      "op": "null", 
      "name": "bn4a_branch2c_beta", 
      "attr": {
        "eps": "1e-05", 
        "fix_gamma": "False"
      }, 
      "inputs": []
    }, 
    {
      "op": "null", 
      "name": "bn4a_branch2c_moving_mean", 
      "attr": {
        "__init__": "[\"zero\", {}]", 
        "eps": "1e-05", 
        "fix_gamma": "False"
      }, 
      "inputs": []
    }, 
    {
      "op": "null", 
      "name": "bn4a_branch2c_moving_var", 
      "attr": {
        "__init__": "[\"one\", {}]", 
        "eps": "1e-05", 
        "fix_gamma": "False"
      }, 
      "inputs": []
    }, 
    {
      "op": "BatchNorm", 
      "name": "bn4a_branch2c", 
      "attr": {
        "eps": "1e-05", 
        "fix_gamma": "False"
      }, 
      "inputs": [[445, 0, 0], [446, 0, 0], [447, 0, 0], [448, 0, 1], [449, 0, 1]]
    }, 
    {
      "op": "broadcast_add", 
      "name": "res4a", 
      "inputs": [[416, 0, 0], [450, 0, 0]]
    }, 
    {
      "op": "Activation", 
      "name": "res4a_relu", 
      "attr": {"act_type": "relu"}, 
      "inputs": [[451, 0, 0]]
    }, 
    {
      "op": "null", 
      "name": "res4b1_branch2a_weight", 
      "attr": {
        "kernel": "(1, 1, 1)", 
        "no_bias": "True", 
        "num_filter": "256", 
        "pad": "(0, 0, 0)", 
        "stride": "(1, 1, 1)"
      }, 
      "inputs": []
    }, 
    {
      "op": "Convolution", 
      "name": "res4b1_branch2a", 
      "attr": {
        "kernel": "(1, 1, 1)", 
        "no_bias": "True", 
        "num_filter": "256", 
        "pad": "(0, 0, 0)", 
        "stride": "(1, 1, 1)"
      }, 
      "inputs": [[452, 0, 0], [453, 0, 0]]
    }, 
    {
      "op": "null", 
      "name": "bn4b1_branch2a_gamma", 
      "attr": {
        "eps": "1e-05", 
        "fix_gamma": "False"
      }, 
      "inputs": []
    }, 
    {
      "op": "null", 
      "name": "bn4b1_branch2a_beta", 
      "attr": {
        "eps": "1e-05", 
        "fix_gamma": "False"
      }, 
      "inputs": []
    }, 
    {
      "op": "null", 
      "name": "bn4b1_branch2a_moving_mean", 
      "attr": {
        "__init__": "[\"zero\", {}]", 
        "eps": "1e-05", 
        "fix_gamma": "False"
      }, 
      "inputs": []
    }, 
    {
      "op": "null", 
      "name": "bn4b1_branch2a_moving_var", 
      "attr": {
        "__init__": "[\"one\", {}]", 
        "eps": "1e-05", 
        "fix_gamma": "False"
      }, 
      "inputs": []
    }, 
    {
      "op": "BatchNorm", 
      "name": "bn4b1_branch2a", 
      "attr": {
        "eps": "1e-05", 
        "fix_gamma": "False"
      }, 
      "inputs": [[454, 0, 0], [455, 0, 0], [456, 0, 0], [457, 0, 1], [458, 0, 1]]
    }, 
    {
      "op": "Activation", 
      "name": "res4b1_branch2a_relu", 
      "attr": {"act_type": "relu"}, 
      "inputs": [[459, 0, 0]]
    }, 
    {
      "op": "null", 
      "name": "res4b1_branch2b_weight", 
      "attr": {
        "kernel": "(1, 3, 3)", 
        "no_bias": "True", 
        "num_filter": "256", 
        "pad": "(0, 1, 1)", 
        "stride": "(1, 1, 1)"
      }, 
      "inputs": []
    }, 
    {
      "op": "Convolution", 
      "name": "res4b1_branch2b", 
      "attr": {
        "kernel": "(1, 3, 3)", 
        "no_bias": "True", 
        "num_filter": "256", 
        "pad": "(0, 1, 1)", 
        "stride": "(1, 1, 1)"
      }, 
      "inputs": [[460, 0, 0], [461, 0, 0]]
    }, 
    {
      "op": "null", 
      "name": "bn4b1_branch2b_gamma", 
      "attr": {
        "eps": "1e-05", 
        "fix_gamma": "False"
      }, 
      "inputs": []
    }, 
    {
      "op": "null", 
      "name": "bn4b1_branch2b_beta", 
      "attr": {
        "eps": "1e-05", 
        "fix_gamma": "False"
      }, 
      "inputs": []
    }, 
    {
      "op": "null", 
      "name": "bn4b1_branch2b_moving_mean", 
      "attr": {
        "__init__": "[\"zero\", {}]", 
        "eps": "1e-05", 
        "fix_gamma": "False"
      }, 
      "inputs": []
    }, 
    {
      "op": "null", 
      "name": "bn4b1_branch2b_moving_var", 
      "attr": {
        "__init__": "[\"one\", {}]", 
        "eps": "1e-05", 
        "fix_gamma": "False"
      }, 
      "inputs": []
    }, 
    {
      "op": "BatchNorm", 
      "name": "bn4b1_branch2b", 
      "attr": {
        "eps": "1e-05", 
        "fix_gamma": "False"
      }, 
      "inputs": [[462, 0, 0], [463, 0, 0], [464, 0, 0], [465, 0, 1], [466, 0, 1]]
    }, 
    {
      "op": "Activation", 
      "name": "res4b1_branch2b_relu", 
      "attr": {"act_type": "relu"}, 
      "inputs": [[467, 0, 0]]
    }, 
    {
      "op": "null", 
      "name": "res4b1_branch2b_t_weight", 
      "attr": {
        "kernel": "(3, 1, 1)", 
        "no_bias": "True", 
        "num_filter": "256", 
        "pad": "(1, 0, 0)", 
        "stride": "(1, 1, 1)"
      }, 
      "inputs": []
    }, 
    {
      "op": "Convolution", 
      "name": "res4b1_branch2b_t", 
      "attr": {
        "kernel": "(3, 1, 1)", 
        "no_bias": "True", 
        "num_filter": "256", 
        "pad": "(1, 0, 0)", 
        "stride": "(1, 1, 1)"
      }, 
      "inputs": [[468, 0, 0], [469, 0, 0]]
    }, 
    {
      "op": "null", 
      "name": "bn4b1_branch2b_t_gamma", 
      "attr": {
        "eps": "1e-05", 
        "fix_gamma": "False"
      }, 
      "inputs": []
    }, 
    {
      "op": "null", 
      "name": "bn4b1_branch2b_t_beta", 
      "attr": {
        "eps": "1e-05", 
        "fix_gamma": "False"
      }, 
      "inputs": []
    }, 
    {
      "op": "null", 
      "name": "bn4b1_branch2b_t_moving_mean", 
      "attr": {
        "__init__": "[\"zero\", {}]", 
        "eps": "1e-05", 
        "fix_gamma": "False"
      }, 
      "inputs": []
    }, 
    {
      "op": "null", 
      "name": "bn4b1_branch2b_t_moving_var", 
      "attr": {
        "__init__": "[\"one\", {}]", 
        "eps": "1e-05", 
        "fix_gamma": "False"
      }, 
      "inputs": []
    }, 
    {
      "op": "BatchNorm", 
      "name": "bn4b1_branch2b_t", 
      "attr": {
        "eps": "1e-05", 
        "fix_gamma": "False"
      }, 
      "inputs": [[470, 0, 0], [471, 0, 0], [472, 0, 0], [473, 0, 1], [474, 0, 1]]
    }, 
    {
      "op": "Activation", 
      "name": "res4b1_branch2b_t_relu", 
      "attr": {"act_type": "relu"}, 
      "inputs": [[475, 0, 0]]
    }, 
    {
      "op": "null", 
      "name": "res4b1_branch2c_weight", 
      "attr": {
        "kernel": "(1, 1, 1)", 
        "no_bias": "True", 
        "num_filter": "1024", 
        "pad": "(0, 0, 0)", 
        "stride": "(1, 1, 1)"
      }, 
      "inputs": []
    }, 
    {
      "op": "Convolution", 
      "name": "res4b1_branch2c", 
      "attr": {
        "kernel": "(1, 1, 1)", 
        "no_bias": "True", 
        "num_filter": "1024", 
        "pad": "(0, 0, 0)", 
        "stride": "(1, 1, 1)"
      }, 
      "inputs": [[476, 0, 0], [477, 0, 0]]
    }, 
    {
      "op": "null", 
      "name": "bn4b1_branch2c_gamma", 
      "attr": {
        "eps": "1e-05", 
        "fix_gamma": "False"
      }, 
      "inputs": []
    }, 
    {
      "op": "null", 
      "name": "bn4b1_branch2c_beta", 
      "attr": {
        "eps": "1e-05", 
        "fix_gamma": "False"
      }, 
      "inputs": []
    }, 
    {
      "op": "null", 
      "name": "bn4b1_branch2c_moving_mean", 
      "attr": {
        "__init__": "[\"zero\", {}]", 
        "eps": "1e-05", 
        "fix_gamma": "False"
      }, 
      "inputs": []
    }, 
    {
      "op": "null", 
      "name": "bn4b1_branch2c_moving_var", 
      "attr": {
        "__init__": "[\"one\", {}]", 
        "eps": "1e-05", 
        "fix_gamma": "False"
      }, 
      "inputs": []
    }, 
    {
      "op": "BatchNorm", 
      "name": "bn4b1_branch2c", 
      "attr": {
        "eps": "1e-05", 
        "fix_gamma": "False"
      }, 
      "inputs": [[478, 0, 0], [479, 0, 0], [480, 0, 0], [481, 0, 1], [482, 0, 1]]
    }, 
    {
      "op": "broadcast_add", 
      "name": "res4b1", 
      "inputs": [[452, 0, 0], [483, 0, 0]]
    }, 
    {
      "op": "Activation", 
      "name": "res4b1_relu", 
      "attr": {"act_type": "relu"}, 
      "inputs": [[484, 0, 0]]
    }, 
    {
      "op": "null", 
      "name": "res4b2_branch2a_weight", 
      "attr": {
        "kernel": "(1, 1, 1)", 
        "no_bias": "True", 
        "num_filter": "256", 
        "pad": "(0, 0, 0)", 
        "stride": "(1, 1, 1)"
      }, 
      "inputs": []
    }, 
    {
      "op": "Convolution", 
      "name": "res4b2_branch2a", 
      "attr": {
        "kernel": "(1, 1, 1)", 
        "no_bias": "True", 
        "num_filter": "256", 
        "pad": "(0, 0, 0)", 
        "stride": "(1, 1, 1)"
      }, 
      "inputs": [[485, 0, 0], [486, 0, 0]]
    }, 
    {
      "op": "null", 
      "name": "bn4b2_branch2a_gamma", 
      "attr": {
        "eps": "1e-05", 
        "fix_gamma": "False"
      }, 
      "inputs": []
    }, 
    {
      "op": "null", 
      "name": "bn4b2_branch2a_beta", 
      "attr": {
        "eps": "1e-05", 
        "fix_gamma": "False"
      }, 
      "inputs": []
    }, 
    {
      "op": "null", 
      "name": "bn4b2_branch2a_moving_mean", 
      "attr": {
        "__init__": "[\"zero\", {}]", 
        "eps": "1e-05", 
        "fix_gamma": "False"
      }, 
      "inputs": []
    }, 
    {
      "op": "null", 
      "name": "bn4b2_branch2a_moving_var", 
      "attr": {
        "__init__": "[\"one\", {}]", 
        "eps": "1e-05", 
        "fix_gamma": "False"
      }, 
      "inputs": []
    }, 
    {
      "op": "BatchNorm", 
      "name": "bn4b2_branch2a", 
      "attr": {
        "eps": "1e-05", 
        "fix_gamma": "False"
      }, 
      "inputs": [[487, 0, 0], [488, 0, 0], [489, 0, 0], [490, 0, 1], [491, 0, 1]]
    }, 
    {
      "op": "Activation", 
      "name": "res4b2_branch2a_relu", 
      "attr": {"act_type": "relu"}, 
      "inputs": [[492, 0, 0]]
    }, 
    {
      "op": "null", 
      "name": "res4b2_branch2b_weight", 
      "attr": {
        "kernel": "(1, 3, 3)", 
        "no_bias": "True", 
        "num_filter": "256", 
        "pad": "(0, 1, 1)", 
        "stride": "(1, 1, 1)"
      }, 
      "inputs": []
    }, 
    {
      "op": "Convolution", 
      "name": "res4b2_branch2b", 
      "attr": {
        "kernel": "(1, 3, 3)", 
        "no_bias": "True", 
        "num_filter": "256", 
        "pad": "(0, 1, 1)", 
        "stride": "(1, 1, 1)"
      }, 
      "inputs": [[493, 0, 0], [494, 0, 0]]
    }, 
    {
      "op": "null", 
      "name": "bn4b2_branch2b_gamma", 
      "attr": {
        "eps": "1e-05", 
        "fix_gamma": "False"
      }, 
      "inputs": []
    }, 
    {
      "op": "null", 
      "name": "bn4b2_branch2b_beta", 
      "attr": {
        "eps": "1e-05", 
        "fix_gamma": "False"
      }, 
      "inputs": []
    }, 
    {
      "op": "null", 
      "name": "bn4b2_branch2b_moving_mean", 
      "attr": {
        "__init__": "[\"zero\", {}]", 
        "eps": "1e-05", 
        "fix_gamma": "False"
      }, 
      "inputs": []
    }, 
    {
      "op": "null", 
      "name": "bn4b2_branch2b_moving_var", 
      "attr": {
        "__init__": "[\"one\", {}]", 
        "eps": "1e-05", 
        "fix_gamma": "False"
      }, 
      "inputs": []
    }, 
    {
      "op": "BatchNorm", 
      "name": "bn4b2_branch2b", 
      "attr": {
        "eps": "1e-05", 
        "fix_gamma": "False"
      }, 
      "inputs": [[495, 0, 0], [496, 0, 0], [497, 0, 0], [498, 0, 1], [499, 0, 1]]
    }, 
    {
      "op": "Activation", 
      "name": "res4b2_branch2b_relu", 
      "attr": {"act_type": "relu"}, 
      "inputs": [[500, 0, 0]]
    }, 
    {
      "op": "_mul_scalar", 
      "name": "_mulscalar16", 
      "attr": {"scalar": "1.0"}, 
      "inputs": [[501, 0, 0]]
    }, 
    {
      "op": "null", 
      "name": "res4b2_branch2b_t_weight", 
      "attr": {
        "kernel": "(3, 1, 1)", 
        "no_bias": "True", 
        "num_filter": "256", 
        "pad": "(1, 0, 0)", 
        "stride": "(1, 1, 1)"
      }, 
      "inputs": []
    }, 
    {
      "op": "Convolution", 
      "name": "res4b2_branch2b_t", 
      "attr": {
        "kernel": "(3, 1, 1)", 
        "no_bias": "True", 
        "num_filter": "256", 
        "pad": "(1, 0, 0)", 
        "stride": "(1, 1, 1)"
      }, 
      "inputs": [[493, 0, 0], [503, 0, 0]]
    }, 
    {
      "op": "null", 
      "name": "bn4b2_branch2b_t_gamma", 
      "attr": {
        "eps": "1e-05", 
        "fix_gamma": "False"
      }, 
      "inputs": []
    }, 
    {
      "op": "null", 
      "name": "bn4b2_branch2b_t_beta", 
      "attr": {
        "eps": "1e-05", 
        "fix_gamma": "False"
      }, 
      "inputs": []
    }, 
    {
      "op": "null", 
      "name": "bn4b2_branch2b_t_moving_mean", 
      "attr": {
        "__init__": "[\"zero\", {}]", 
        "eps": "1e-05", 
        "fix_gamma": "False"
      }, 
      "inputs": []
    }, 
    {
      "op": "null", 
      "name": "bn4b2_branch2b_t_moving_var", 
      "attr": {
        "__init__": "[\"one\", {}]", 
        "eps": "1e-05", 
        "fix_gamma": "False"
      }, 
      "inputs": []
    }, 
    {
      "op": "BatchNorm", 
      "name": "bn4b2_branch2b_t", 
      "attr": {
        "eps": "1e-05", 
        "fix_gamma": "False"
      }, 
      "inputs": [[504, 0, 0], [505, 0, 0], [506, 0, 0], [507, 0, 1], [508, 0, 1]]
    }, 
    {
      "op": "_mul_scalar", 
      "name": "_mulscalar17", 
      "attr": {"scalar": "1.0"}, 
      "inputs": [[509, 0, 0]]
    }, 
    {
      "op": "elemwise_add", 
      "name": "_plus8", 
      "inputs": [[502, 0, 0], [510, 0, 0]]
    }, 
    {
      "op": "Activation", 
      "name": "res4b2_branch2b_st_relu", 
      "attr": {"act_type": "relu"}, 
      "inputs": [[511, 0, 0]]
    }, 
    {
      "op": "null", 
      "name": "res4b2_branch2c_weight", 
      "attr": {
        "kernel": "(1, 1, 1)", 
        "no_bias": "True", 
        "num_filter": "1024", 
        "pad": "(0, 0, 0)", 
        "stride": "(1, 1, 1)"
      }, 
      "inputs": []
    }, 
    {
      "op": "Convolution", 
      "name": "res4b2_branch2c", 
      "attr": {
        "kernel": "(1, 1, 1)", 
        "no_bias": "True", 
        "num_filter": "1024", 
        "pad": "(0, 0, 0)", 
        "stride": "(1, 1, 1)"
      }, 
      "inputs": [[512, 0, 0], [513, 0, 0]]
    }, 
    {
      "op": "null", 
      "name": "bn4b2_branch2c_gamma", 
      "attr": {
        "eps": "1e-05", 
        "fix_gamma": "False"
      }, 
      "inputs": []
    }, 
    {
      "op": "null", 
      "name": "bn4b2_branch2c_beta", 
      "attr": {
        "eps": "1e-05", 
        "fix_gamma": "False"
      }, 
      "inputs": []
    }, 
    {
      "op": "null", 
      "name": "bn4b2_branch2c_moving_mean", 
      "attr": {
        "__init__": "[\"zero\", {}]", 
        "eps": "1e-05", 
        "fix_gamma": "False"
      }, 
      "inputs": []
    }, 
    {
      "op": "null", 
      "name": "bn4b2_branch2c_moving_var", 
      "attr": {
        "__init__": "[\"one\", {}]", 
        "eps": "1e-05", 
        "fix_gamma": "False"
      }, 
      "inputs": []
    }, 
    {
      "op": "BatchNorm", 
      "name": "bn4b2_branch2c", 
      "attr": {
        "eps": "1e-05", 
        "fix_gamma": "False"
      }, 
      "inputs": [[514, 0, 0], [515, 0, 0], [516, 0, 0], [517, 0, 1], [518, 0, 1]]
    }, 
    {
      "op": "broadcast_add", 
      "name": "res4b2", 
      "inputs": [[485, 0, 0], [519, 0, 0]]
    }, 
    {
      "op": "Activation", 
      "name": "res4b2_relu", 
      "attr": {"act_type": "relu"}, 
      "inputs": [[520, 0, 0]]
    }, 
    {
      "op": "null", 
      "name": "res4b3_branch2a_weight", 
      "attr": {
        "kernel": "(1, 1, 1)", 
        "no_bias": "True", 
        "num_filter": "256", 
        "pad": "(0, 0, 0)", 
        "stride": "(1, 1, 1)"
      }, 
      "inputs": []
    }, 
    {
      "op": "Convolution", 
      "name": "res4b3_branch2a", 
      "attr": {
        "kernel": "(1, 1, 1)", 
        "no_bias": "True", 
        "num_filter": "256", 
        "pad": "(0, 0, 0)", 
        "stride": "(1, 1, 1)"
      }, 
      "inputs": [[521, 0, 0], [522, 0, 0]]
    }, 
    {
      "op": "null", 
      "name": "bn4b3_branch2a_gamma", 
      "attr": {
        "eps": "1e-05", 
        "fix_gamma": "False"
      }, 
      "inputs": []
    }, 
    {
      "op": "null", 
      "name": "bn4b3_branch2a_beta", 
      "attr": {
        "eps": "1e-05", 
        "fix_gamma": "False"
      }, 
      "inputs": []
    }, 
    {
      "op": "null", 
      "name": "bn4b3_branch2a_moving_mean", 
      "attr": {
        "__init__": "[\"zero\", {}]", 
        "eps": "1e-05", 
        "fix_gamma": "False"
      }, 
      "inputs": []
    }, 
    {
      "op": "null", 
      "name": "bn4b3_branch2a_moving_var", 
      "attr": {
        "__init__": "[\"one\", {}]", 
        "eps": "1e-05", 
        "fix_gamma": "False"
      }, 
      "inputs": []
    }, 
    {
      "op": "BatchNorm", 
      "name": "bn4b3_branch2a", 
      "attr": {
        "eps": "1e-05", 
        "fix_gamma": "False"
      }, 
      "inputs": [[523, 0, 0], [524, 0, 0], [525, 0, 0], [526, 0, 1], [527, 0, 1]]
    }, 
    {
      "op": "Activation", 
      "name": "res4b3_branch2a_relu", 
      "attr": {"act_type": "relu"}, 
      "inputs": [[528, 0, 0]]
    }, 
    {
      "op": "null", 
      "name": "res4b3_branch2b_weight", 
      "attr": {
        "kernel": "(1, 3, 3)", 
        "no_bias": "True", 
        "num_filter": "256", 
        "pad": "(0, 1, 1)", 
        "stride": "(1, 1, 1)"
      }, 
      "inputs": []
    }, 
    {
      "op": "Convolution", 
      "name": "res4b3_branch2b", 
      "attr": {
        "kernel": "(1, 3, 3)", 
        "no_bias": "True", 
        "num_filter": "256", 
        "pad": "(0, 1, 1)", 
        "stride": "(1, 1, 1)"
      }, 
      "inputs": [[529, 0, 0], [530, 0, 0]]
    }, 
    {
      "op": "null", 
      "name": "bn4b3_branch2b_gamma", 
      "attr": {
        "eps": "1e-05", 
        "fix_gamma": "False"
      }, 
      "inputs": []
    }, 
    {
      "op": "null", 
      "name": "bn4b3_branch2b_beta", 
      "attr": {
        "eps": "1e-05", 
        "fix_gamma": "False"
      }, 
      "inputs": []
    }, 
    {
      "op": "null", 
      "name": "bn4b3_branch2b_moving_mean", 
      "attr": {
        "__init__": "[\"zero\", {}]", 
        "eps": "1e-05", 
        "fix_gamma": "False"
      }, 
      "inputs": []
    }, 
    {
      "op": "null", 
      "name": "bn4b3_branch2b_moving_var", 
      "attr": {
        "__init__": "[\"one\", {}]", 
        "eps": "1e-05", 
        "fix_gamma": "False"
      }, 
      "inputs": []
    }, 
    {
      "op": "BatchNorm", 
      "name": "bn4b3_branch2b", 
      "attr": {
        "eps": "1e-05", 
        "fix_gamma": "False"
      }, 
      "inputs": [[531, 0, 0], [532, 0, 0], [533, 0, 0], [534, 0, 1], [535, 0, 1]]
    }, 
    {
      "op": "Activation", 
      "name": "res4b3_branch2b_relu", 
      "attr": {"act_type": "relu"}, 
      "inputs": [[536, 0, 0]]
    }, 
    {
      "op": "_mul_scalar", 
      "name": "_mulscalar18", 
      "attr": {"scalar": "0.5"}, 
      "inputs": [[537, 0, 0]]
    }, 
    {
      "op": "null", 
      "name": "res4b3_branch2b_t_weight", 
      "attr": {
        "kernel": "(3, 1, 1)", 
        "no_bias": "True", 
        "num_filter": "256", 
        "pad": "(1, 0, 0)", 
        "stride": "(1, 1, 1)"
      }, 
      "inputs": []
    }, 
    {
      "op": "Convolution", 
      "name": "res4b3_branch2b_t", 
      "attr": {
        "kernel": "(3, 1, 1)", 
        "no_bias": "True", 
        "num_filter": "256", 
        "pad": "(1, 0, 0)", 
        "stride": "(1, 1, 1)"
      }, 
      "inputs": [[537, 0, 0], [539, 0, 0]]
    }, 
    {
      "op": "null", 
      "name": "bn4b3_branch2b_t_gamma", 
      "attr": {
        "eps": "1e-05", 
        "fix_gamma": "False"
      }, 
      "inputs": []
    }, 
    {
      "op": "null", 
      "name": "bn4b3_branch2b_t_beta", 
      "attr": {
        "eps": "1e-05", 
        "fix_gamma": "False"
      }, 
      "inputs": []
    }, 
    {
      "op": "null", 
      "name": "bn4b3_branch2b_t_moving_mean", 
      "attr": {
        "__init__": "[\"zero\", {}]", 
        "eps": "1e-05", 
        "fix_gamma": "False"
      }, 
      "inputs": []
    }, 
    {
      "op": "null", 
      "name": "bn4b3_branch2b_t_moving_var", 
      "attr": {
        "__init__": "[\"one\", {}]", 
        "eps": "1e-05", 
        "fix_gamma": "False"
      }, 
      "inputs": []
    }, 
    {
      "op": "BatchNorm", 
      "name": "bn4b3_branch2b_t", 
      "attr": {
        "eps": "1e-05", 
        "fix_gamma": "False"
      }, 
      "inputs": [[540, 0, 0], [541, 0, 0], [542, 0, 0], [543, 0, 1], [544, 0, 1]]
    }, 
    {
      "op": "_mul_scalar", 
      "name": "_mulscalar19", 
      "attr": {"scalar": "0.5"}, 
      "inputs": [[545, 0, 0]]
    }, 
    {
      "op": "elemwise_add", 
      "name": "_plus9", 
      "inputs": [[538, 0, 0], [546, 0, 0]]
    }, 
    {
      "op": "Activation", 
      "name": "res4b3_branch2b_st_relu", 
      "attr": {"act_type": "relu"}, 
      "inputs": [[547, 0, 0]]
    }, 
    {
      "op": "null", 
      "name": "res4b3_branch2c_weight", 
      "attr": {
        "kernel": "(1, 1, 1)", 
        "no_bias": "True", 
        "num_filter": "1024", 
        "pad": "(0, 0, 0)", 
        "stride": "(1, 1, 1)"
      }, 
      "inputs": []
    }, 
    {
      "op": "Convolution", 
      "name": "res4b3_branch2c", 
      "attr": {
        "kernel": "(1, 1, 1)", 
        "no_bias": "True", 
        "num_filter": "1024", 
        "pad": "(0, 0, 0)", 
        "stride": "(1, 1, 1)"
      }, 
      "inputs": [[548, 0, 0], [549, 0, 0]]
    }, 
    {
      "op": "null", 
      "name": "bn4b3_branch2c_gamma", 
      "attr": {
        "eps": "1e-05", 
        "fix_gamma": "False"
      }, 
      "inputs": []
    }, 
    {
      "op": "null", 
      "name": "bn4b3_branch2c_beta", 
      "attr": {
        "eps": "1e-05", 
        "fix_gamma": "False"
      }, 
      "inputs": []
    }, 
    {
      "op": "null", 
      "name": "bn4b3_branch2c_moving_mean", 
      "attr": {
        "__init__": "[\"zero\", {}]", 
        "eps": "1e-05", 
        "fix_gamma": "False"
      }, 
      "inputs": []
    }, 
    {
      "op": "null", 
      "name": "bn4b3_branch2c_moving_var", 
      "attr": {
        "__init__": "[\"one\", {}]", 
        "eps": "1e-05", 
        "fix_gamma": "False"
      }, 
      "inputs": []
    }, 
    {
      "op": "BatchNorm", 
      "name": "bn4b3_branch2c", 
      "attr": {
        "eps": "1e-05", 
        "fix_gamma": "False"
      }, 
      "inputs": [[550, 0, 0], [551, 0, 0], [552, 0, 0], [553, 0, 1], [554, 0, 1]]
    }, 
    {
      "op": "broadcast_add", 
      "name": "res4b3", 
      "inputs": [[521, 0, 0], [555, 0, 0]]
    }, 
    {
      "op": "Activation", 
      "name": "res4b3_relu", 
      "attr": {"act_type": "relu"}, 
      "inputs": [[556, 0, 0]]
    }, 
    {
      "op": "null", 
      "name": "res4b4_branch2a_weight", 
      "attr": {
        "kernel": "(1, 1, 1)", 
        "no_bias": "True", 
        "num_filter": "256", 
        "pad": "(0, 0, 0)", 
        "stride": "(1, 1, 1)"
      }, 
      "inputs": []
    }, 
    {
      "op": "Convolution", 
      "name": "res4b4_branch2a", 
      "attr": {
        "kernel": "(1, 1, 1)", 
        "no_bias": "True", 
        "num_filter": "256", 
        "pad": "(0, 0, 0)", 
        "stride": "(1, 1, 1)"
      }, 
      "inputs": [[557, 0, 0], [558, 0, 0]]
    }, 
    {
      "op": "null", 
      "name": "bn4b4_branch2a_gamma", 
      "attr": {
        "eps": "1e-05", 
        "fix_gamma": "False"
      }, 
      "inputs": []
    }, 
    {
      "op": "null", 
      "name": "bn4b4_branch2a_beta", 
      "attr": {
        "eps": "1e-05", 
        "fix_gamma": "False"
      }, 
      "inputs": []
    }, 
    {
      "op": "null", 
      "name": "bn4b4_branch2a_moving_mean", 
      "attr": {
        "__init__": "[\"zero\", {}]", 
        "eps": "1e-05", 
        "fix_gamma": "False"
      }, 
      "inputs": []
    }, 
    {
      "op": "null", 
      "name": "bn4b4_branch2a_moving_var", 
      "attr": {
        "__init__": "[\"one\", {}]", 
        "eps": "1e-05", 
        "fix_gamma": "False"
      }, 
      "inputs": []
    }, 
    {
      "op": "BatchNorm", 
      "name": "bn4b4_branch2a", 
      "attr": {
        "eps": "1e-05", 
        "fix_gamma": "False"
      }, 
      "inputs": [[559, 0, 0], [560, 0, 0], [561, 0, 0], [562, 0, 1], [563, 0, 1]]
    }, 
    {
      "op": "Activation", 
      "name": "res4b4_branch2a_relu", 
      "attr": {"act_type": "relu"}, 
      "inputs": [[564, 0, 0]]
    }, 
    {
      "op": "null", 
      "name": "res4b4_branch2b_weight", 
      "attr": {
        "kernel": "(1, 3, 3)", 
        "no_bias": "True", 
        "num_filter": "256", 
        "pad": "(0, 1, 1)", 
        "stride": "(1, 1, 1)"
      }, 
      "inputs": []
    }, 
    {
      "op": "Convolution", 
      "name": "res4b4_branch2b", 
      "attr": {
        "kernel": "(1, 3, 3)", 
        "no_bias": "True", 
        "num_filter": "256", 
        "pad": "(0, 1, 1)", 
        "stride": "(1, 1, 1)"
      }, 
      "inputs": [[565, 0, 0], [566, 0, 0]]
    }, 
    {
      "op": "null", 
      "name": "bn4b4_branch2b_gamma", 
      "attr": {
        "eps": "1e-05", 
        "fix_gamma": "False"
      }, 
      "inputs": []
    }, 
    {
      "op": "null", 
      "name": "bn4b4_branch2b_beta", 
      "attr": {
        "eps": "1e-05", 
        "fix_gamma": "False"
      }, 
      "inputs": []
    }, 
    {
      "op": "null", 
      "name": "bn4b4_branch2b_moving_mean", 
      "attr": {
        "__init__": "[\"zero\", {}]", 
        "eps": "1e-05", 
        "fix_gamma": "False"
      }, 
      "inputs": []
    }, 
    {
      "op": "null", 
      "name": "bn4b4_branch2b_moving_var", 
      "attr": {
        "__init__": "[\"one\", {}]", 
        "eps": "1e-05", 
        "fix_gamma": "False"
      }, 
      "inputs": []
    }, 
    {
      "op": "BatchNorm", 
      "name": "bn4b4_branch2b", 
      "attr": {
        "eps": "1e-05", 
        "fix_gamma": "False"
      }, 
      "inputs": [[567, 0, 0], [568, 0, 0], [569, 0, 0], [570, 0, 1], [571, 0, 1]]
    }, 
    {
      "op": "Activation", 
      "name": "res4b4_branch2b_relu", 
      "attr": {"act_type": "relu"}, 
      "inputs": [[572, 0, 0]]
    }, 
    {
      "op": "null", 
      "name": "res4b4_branch2b_t_weight", 
      "attr": {
        "kernel": "(3, 1, 1)", 
        "no_bias": "True", 
        "num_filter": "256", 
        "pad": "(1, 0, 0)", 
        "stride": "(1, 1, 1)"
      }, 
      "inputs": []
    }, 
    {
      "op": "Convolution", 
      "name": "res4b4_branch2b_t", 
      "attr": {
        "kernel": "(3, 1, 1)", 
        "no_bias": "True", 
        "num_filter": "256", 
        "pad": "(1, 0, 0)", 
        "stride": "(1, 1, 1)"
      }, 
      "inputs": [[573, 0, 0], [574, 0, 0]]
    }, 
    {
      "op": "null", 
      "name": "bn4b4_branch2b_t_gamma", 
      "attr": {
        "eps": "1e-05", 
        "fix_gamma": "False"
      }, 
      "inputs": []
    }, 
    {
      "op": "null", 
      "name": "bn4b4_branch2b_t_beta", 
      "attr": {
        "eps": "1e-05", 
        "fix_gamma": "False"
      }, 
      "inputs": []
    }, 
    {
      "op": "null", 
      "name": "bn4b4_branch2b_t_moving_mean", 
      "attr": {
        "__init__": "[\"zero\", {}]", 
        "eps": "1e-05", 
        "fix_gamma": "False"
      }, 
      "inputs": []
    }, 
    {
      "op": "null", 
      "name": "bn4b4_branch2b_t_moving_var", 
      "attr": {
        "__init__": "[\"one\", {}]", 
        "eps": "1e-05", 
        "fix_gamma": "False"
      }, 
      "inputs": []
    }, 
    {
      "op": "BatchNorm", 
      "name": "bn4b4_branch2b_t", 
      "attr": {
        "eps": "1e-05", 
        "fix_gamma": "False"
      }, 
      "inputs": [[575, 0, 0], [576, 0, 0], [577, 0, 0], [578, 0, 1], [579, 0, 1]]
    }, 
    {
      "op": "Activation", 
      "name": "res4b4_branch2b_t_relu", 
      "attr": {"act_type": "relu"}, 
      "inputs": [[580, 0, 0]]
    }, 
    {
      "op": "null", 
      "name": "res4b4_branch2c_weight", 
      "attr": {
        "kernel": "(1, 1, 1)", 
        "no_bias": "True", 
        "num_filter": "1024", 
        "pad": "(0, 0, 0)", 
        "stride": "(1, 1, 1)"
      }, 
      "inputs": []
    }, 
    {
      "op": "Convolution", 
      "name": "res4b4_branch2c", 
      "attr": {
        "kernel": "(1, 1, 1)", 
        "no_bias": "True", 
        "num_filter": "1024", 
        "pad": "(0, 0, 0)", 
        "stride": "(1, 1, 1)"
      }, 
      "inputs": [[581, 0, 0], [582, 0, 0]]
    }, 
    {
      "op": "null", 
      "name": "bn4b4_branch2c_gamma", 
      "attr": {
        "eps": "1e-05", 
        "fix_gamma": "False"
      }, 
      "inputs": []
    }, 
    {
      "op": "null", 
      "name": "bn4b4_branch2c_beta", 
      "attr": {
        "eps": "1e-05", 
        "fix_gamma": "False"
      }, 
      "inputs": []
    }, 
    {
      "op": "null", 
      "name": "bn4b4_branch2c_moving_mean", 
      "attr": {
        "__init__": "[\"zero\", {}]", 
        "eps": "1e-05", 
        "fix_gamma": "False"
      }, 
      "inputs": []
    }, 
    {
      "op": "null", 
      "name": "bn4b4_branch2c_moving_var", 
      "attr": {
        "__init__": "[\"one\", {}]", 
        "eps": "1e-05", 
        "fix_gamma": "False"
      }, 
      "inputs": []
    }, 
    {
      "op": "BatchNorm", 
      "name": "bn4b4_branch2c", 
      "attr": {
        "eps": "1e-05", 
        "fix_gamma": "False"
      }, 
      "inputs": [[583, 0, 0], [584, 0, 0], [585, 0, 0], [586, 0, 1], [587, 0, 1]]
    }, 
    {
      "op": "broadcast_add", 
      "name": "res4b4", 
      "inputs": [[557, 0, 0], [588, 0, 0]]
    }, 
    {
      "op": "Activation", 
      "name": "res4b4_relu", 
      "attr": {"act_type": "relu"}, 
      "inputs": [[589, 0, 0]]
    }, 
    {
      "op": "null", 
      "name": "res4b5_branch2a_weight", 
      "attr": {
        "kernel": "(1, 1, 1)", 
        "no_bias": "True", 
        "num_filter": "256", 
        "pad": "(0, 0, 0)", 
        "stride": "(1, 1, 1)"
      }, 
      "inputs": []
    }, 
    {
      "op": "Convolution", 
      "name": "res4b5_branch2a", 
      "attr": {
        "kernel": "(1, 1, 1)", 
        "no_bias": "True", 
        "num_filter": "256", 
        "pad": "(0, 0, 0)", 
        "stride": "(1, 1, 1)"
      }, 
      "inputs": [[590, 0, 0], [591, 0, 0]]
    }, 
    {
      "op": "null", 
      "name": "bn4b5_branch2a_gamma", 
      "attr": {
        "eps": "1e-05", 
        "fix_gamma": "False"
      }, 
      "inputs": []
    }, 
    {
      "op": "null", 
      "name": "bn4b5_branch2a_beta", 
      "attr": {
        "eps": "1e-05", 
        "fix_gamma": "False"
      }, 
      "inputs": []
    }, 
    {
      "op": "null", 
      "name": "bn4b5_branch2a_moving_mean", 
      "attr": {
        "__init__": "[\"zero\", {}]", 
        "eps": "1e-05", 
        "fix_gamma": "False"
      }, 
      "inputs": []
    }, 
    {
      "op": "null", 
      "name": "bn4b5_branch2a_moving_var", 
      "attr": {
        "__init__": "[\"one\", {}]", 
        "eps": "1e-05", 
        "fix_gamma": "False"
      }, 
      "inputs": []
    }, 
    {
      "op": "BatchNorm", 
      "name": "bn4b5_branch2a", 
      "attr": {
        "eps": "1e-05", 
        "fix_gamma": "False"
      }, 
      "inputs": [[592, 0, 0], [593, 0, 0], [594, 0, 0], [595, 0, 1], [596, 0, 1]]
    }, 
    {
      "op": "Activation", 
      "name": "res4b5_branch2a_relu", 
      "attr": {"act_type": "relu"}, 
      "inputs": [[597, 0, 0]]
    }, 
    {
      "op": "null", 
      "name": "res4b5_branch2b_weight", 
      "attr": {
        "kernel": "(1, 3, 3)", 
        "no_bias": "True", 
        "num_filter": "256", 
        "pad": "(0, 1, 1)", 
        "stride": "(1, 1, 1)"
      }, 
      "inputs": []
    }, 
    {
      "op": "Convolution", 
      "name": "res4b5_branch2b", 
      "attr": {
        "kernel": "(1, 3, 3)", 
        "no_bias": "True", 
        "num_filter": "256", 
        "pad": "(0, 1, 1)", 
        "stride": "(1, 1, 1)"
      }, 
      "inputs": [[598, 0, 0], [599, 0, 0]]
    }, 
    {
      "op": "null", 
      "name": "bn4b5_branch2b_gamma", 
      "attr": {
        "eps": "1e-05", 
        "fix_gamma": "False"
      }, 
      "inputs": []
    }, 
    {
      "op": "null", 
      "name": "bn4b5_branch2b_beta", 
      "attr": {
        "eps": "1e-05", 
        "fix_gamma": "False"
      }, 
      "inputs": []
    }, 
    {
      "op": "null", 
      "name": "bn4b5_branch2b_moving_mean", 
      "attr": {
        "__init__": "[\"zero\", {}]", 
        "eps": "1e-05", 
        "fix_gamma": "False"
      }, 
      "inputs": []
    }, 
    {
      "op": "null", 
      "name": "bn4b5_branch2b_moving_var", 
      "attr": {
        "__init__": "[\"one\", {}]", 
        "eps": "1e-05", 
        "fix_gamma": "False"
      }, 
      "inputs": []
    }, 
    {
      "op": "BatchNorm", 
      "name": "bn4b5_branch2b", 
      "attr": {
        "eps": "1e-05", 
        "fix_gamma": "False"
      }, 
      "inputs": [[600, 0, 0], [601, 0, 0], [602, 0, 0], [603, 0, 1], [604, 0, 1]]
    }, 
    {
      "op": "Activation", 
      "name": "res4b5_branch2b_relu", 
      "attr": {"act_type": "relu"}, 
      "inputs": [[605, 0, 0]]
    }, 
    {
      "op": "_mul_scalar", 
      "name": "_mulscalar20", 
      "attr": {"scalar": "1.0"}, 
      "inputs": [[606, 0, 0]]
    }, 
    {
      "op": "null", 
      "name": "res4b5_branch2b_t_weight", 
      "attr": {
        "kernel": "(3, 1, 1)", 
        "no_bias": "True", 
        "num_filter": "256", 
        "pad": "(1, 0, 0)", 
        "stride": "(1, 1, 1)"
      }, 
      "inputs": []
    }, 
    {
      "op": "Convolution", 
      "name": "res4b5_branch2b_t", 
      "attr": {
        "kernel": "(3, 1, 1)", 
        "no_bias": "True", 
        "num_filter": "256", 
        "pad": "(1, 0, 0)", 
        "stride": "(1, 1, 1)"
      }, 
      "inputs": [[598, 0, 0], [608, 0, 0]]
    }, 
    {
      "op": "null", 
      "name": "bn4b5_branch2b_t_gamma", 
      "attr": {
        "eps": "1e-05", 
        "fix_gamma": "False"
      }, 
      "inputs": []
    }, 
    {
      "op": "null", 
      "name": "bn4b5_branch2b_t_beta", 
      "attr": {
        "eps": "1e-05", 
        "fix_gamma": "False"
      }, 
      "inputs": []
    }, 
    {
      "op": "null", 
      "name": "bn4b5_branch2b_t_moving_mean", 
      "attr": {
        "__init__": "[\"zero\", {}]", 
        "eps": "1e-05", 
        "fix_gamma": "False"
      }, 
      "inputs": []
    }, 
    {
      "op": "null", 
      "name": "bn4b5_branch2b_t_moving_var", 
      "attr": {
        "__init__": "[\"one\", {}]", 
        "eps": "1e-05", 
        "fix_gamma": "False"
      }, 
      "inputs": []
    }, 
    {
      "op": "BatchNorm", 
      "name": "bn4b5_branch2b_t", 
      "attr": {
        "eps": "1e-05", 
        "fix_gamma": "False"
      }, 
      "inputs": [[609, 0, 0], [610, 0, 0], [611, 0, 0], [612, 0, 1], [613, 0, 1]]
    }, 
    {
      "op": "_mul_scalar", 
      "name": "_mulscalar21", 
      "attr": {"scalar": "1.0"}, 
      "inputs": [[614, 0, 0]]
    }, 
    {
      "op": "elemwise_add", 
      "name": "_plus10", 
      "inputs": [[607, 0, 0], [615, 0, 0]]
    }, 
    {
      "op": "Activation", 
      "name": "res4b5_branch2b_st_relu", 
      "attr": {"act_type": "relu"}, 
      "inputs": [[616, 0, 0]]
    }, 
    {
      "op": "null", 
      "name": "res4b5_branch2c_weight", 
      "attr": {
        "kernel": "(1, 1, 1)", 
        "no_bias": "True", 
        "num_filter": "1024", 
        "pad": "(0, 0, 0)", 
        "stride": "(1, 1, 1)"
      }, 
      "inputs": []
    }, 
    {
      "op": "Convolution", 
      "name": "res4b5_branch2c", 
      "attr": {
        "kernel": "(1, 1, 1)", 
        "no_bias": "True", 
        "num_filter": "1024", 
        "pad": "(0, 0, 0)", 
        "stride": "(1, 1, 1)"
      }, 
      "inputs": [[617, 0, 0], [618, 0, 0]]
    }, 
    {
      "op": "null", 
      "name": "bn4b5_branch2c_gamma", 
      "attr": {
        "eps": "1e-05", 
        "fix_gamma": "False"
      }, 
      "inputs": []
    }, 
    {
      "op": "null", 
      "name": "bn4b5_branch2c_beta", 
      "attr": {
        "eps": "1e-05", 
        "fix_gamma": "False"
      }, 
      "inputs": []
    }, 
    {
      "op": "null", 
      "name": "bn4b5_branch2c_moving_mean", 
      "attr": {
        "__init__": "[\"zero\", {}]", 
        "eps": "1e-05", 
        "fix_gamma": "False"
      }, 
      "inputs": []
    }, 
    {
      "op": "null", 
      "name": "bn4b5_branch2c_moving_var", 
      "attr": {
        "__init__": "[\"one\", {}]", 
        "eps": "1e-05", 
        "fix_gamma": "False"
      }, 
      "inputs": []
    }, 
    {
      "op": "BatchNorm", 
      "name": "bn4b5_branch2c", 
      "attr": {
        "eps": "1e-05", 
        "fix_gamma": "False"
      }, 
      "inputs": [[619, 0, 0], [620, 0, 0], [621, 0, 0], [622, 0, 1], [623, 0, 1]]
    }, 
    {
      "op": "broadcast_add", 
      "name": "res4b5", 
      "inputs": [[590, 0, 0], [624, 0, 0]]
    }, 
    {
      "op": "Activation", 
      "name": "res4b5_relu", 
      "attr": {"act_type": "relu"}, 
      "inputs": [[625, 0, 0]]
    }, 
    {
      "op": "null", 
      "name": "res4b6_branch2a_weight", 
      "attr": {
        "kernel": "(1, 1, 1)", 
        "no_bias": "True", 
        "num_filter": "256", 
        "pad": "(0, 0, 0)", 
        "stride": "(1, 1, 1)"
      }, 
      "inputs": []
    }, 
    {
      "op": "Convolution", 
      "name": "res4b6_branch2a", 
      "attr": {
        "kernel": "(1, 1, 1)", 
        "no_bias": "True", 
        "num_filter": "256", 
        "pad": "(0, 0, 0)", 
        "stride": "(1, 1, 1)"
      }, 
      "inputs": [[626, 0, 0], [627, 0, 0]]
    }, 
    {
      "op": "null", 
      "name": "bn4b6_branch2a_gamma", 
      "attr": {
        "eps": "1e-05", 
        "fix_gamma": "False"
      }, 
      "inputs": []
    }, 
    {
      "op": "null", 
      "name": "bn4b6_branch2a_beta", 
      "attr": {
        "eps": "1e-05", 
        "fix_gamma": "False"
      }, 
      "inputs": []
    }, 
    {
      "op": "null", 
      "name": "bn4b6_branch2a_moving_mean", 
      "attr": {
        "__init__": "[\"zero\", {}]", 
        "eps": "1e-05", 
        "fix_gamma": "False"
      }, 
      "inputs": []
    }, 
    {
      "op": "null", 
      "name": "bn4b6_branch2a_moving_var", 
      "attr": {
        "__init__": "[\"one\", {}]", 
        "eps": "1e-05", 
        "fix_gamma": "False"
      }, 
      "inputs": []
    }, 
    {
      "op": "BatchNorm", 
      "name": "bn4b6_branch2a", 
      "attr": {
        "eps": "1e-05", 
        "fix_gamma": "False"
      }, 
      "inputs": [[628, 0, 0], [629, 0, 0], [630, 0, 0], [631, 0, 1], [632, 0, 1]]
    }, 
    {
      "op": "Activation", 
      "name": "res4b6_branch2a_relu", 
      "attr": {"act_type": "relu"}, 
      "inputs": [[633, 0, 0]]
    }, 
    {
      "op": "null", 
      "name": "res4b6_branch2b_weight", 
      "attr": {
        "kernel": "(1, 3, 3)", 
        "no_bias": "True", 
        "num_filter": "256", 
        "pad": "(0, 1, 1)", 
        "stride": "(1, 1, 1)"
      }, 
      "inputs": []
    }, 
    {
      "op": "Convolution", 
      "name": "res4b6_branch2b", 
      "attr": {
        "kernel": "(1, 3, 3)", 
        "no_bias": "True", 
        "num_filter": "256", 
        "pad": "(0, 1, 1)", 
        "stride": "(1, 1, 1)"
      }, 
      "inputs": [[634, 0, 0], [635, 0, 0]]
    }, 
    {
      "op": "null", 
      "name": "bn4b6_branch2b_gamma", 
      "attr": {
        "eps": "1e-05", 
        "fix_gamma": "False"
      }, 
      "inputs": []
    }, 
    {
      "op": "null", 
      "name": "bn4b6_branch2b_beta", 
      "attr": {
        "eps": "1e-05", 
        "fix_gamma": "False"
      }, 
      "inputs": []
    }, 
    {
      "op": "null", 
      "name": "bn4b6_branch2b_moving_mean", 
      "attr": {
        "__init__": "[\"zero\", {}]", 
        "eps": "1e-05", 
        "fix_gamma": "False"
      }, 
      "inputs": []
    }, 
    {
      "op": "null", 
      "name": "bn4b6_branch2b_moving_var", 
      "attr": {
        "__init__": "[\"one\", {}]", 
        "eps": "1e-05", 
        "fix_gamma": "False"
      }, 
      "inputs": []
    }, 
    {
      "op": "BatchNorm", 
      "name": "bn4b6_branch2b", 
      "attr": {
        "eps": "1e-05", 
        "fix_gamma": "False"
      }, 
      "inputs": [[636, 0, 0], [637, 0, 0], [638, 0, 0], [639, 0, 1], [640, 0, 1]]
    }, 
    {
      "op": "Activation", 
      "name": "res4b6_branch2b_relu", 
      "attr": {"act_type": "relu"}, 
      "inputs": [[641, 0, 0]]
    }, 
    {
      "op": "_mul_scalar", 
      "name": "_mulscalar22", 
      "attr": {"scalar": "0.5"}, 
      "inputs": [[642, 0, 0]]
    }, 
    {
      "op": "null", 
      "name": "res4b6_branch2b_t_weight", 
      "attr": {
        "kernel": "(3, 1, 1)", 
        "no_bias": "True", 
        "num_filter": "256", 
        "pad": "(1, 0, 0)", 
        "stride": "(1, 1, 1)"
      }, 
      "inputs": []
    }, 
    {
      "op": "Convolution", 
      "name": "res4b6_branch2b_t", 
      "attr": {
        "kernel": "(3, 1, 1)", 
        "no_bias": "True", 
        "num_filter": "256", 
        "pad": "(1, 0, 0)", 
        "stride": "(1, 1, 1)"
      }, 
      "inputs": [[642, 0, 0], [644, 0, 0]]
    }, 
    {
      "op": "null", 
      "name": "bn4b6_branch2b_t_gamma", 
      "attr": {
        "eps": "1e-05", 
        "fix_gamma": "False"
      }, 
      "inputs": []
    }, 
    {
      "op": "null", 
      "name": "bn4b6_branch2b_t_beta", 
      "attr": {
        "eps": "1e-05", 
        "fix_gamma": "False"
      }, 
      "inputs": []
    }, 
    {
      "op": "null", 
      "name": "bn4b6_branch2b_t_moving_mean", 
      "attr": {
        "__init__": "[\"zero\", {}]", 
        "eps": "1e-05", 
        "fix_gamma": "False"
      }, 
      "inputs": []
    }, 
    {
      "op": "null", 
      "name": "bn4b6_branch2b_t_moving_var", 
      "attr": {
        "__init__": "[\"one\", {}]", 
        "eps": "1e-05", 
        "fix_gamma": "False"
      }, 
      "inputs": []
    }, 
    {
      "op": "BatchNorm", 
      "name": "bn4b6_branch2b_t", 
      "attr": {
        "eps": "1e-05", 
        "fix_gamma": "False"
      }, 
      "inputs": [[645, 0, 0], [646, 0, 0], [647, 0, 0], [648, 0, 1], [649, 0, 1]]
    }, 
    {
      "op": "_mul_scalar", 
      "name": "_mulscalar23", 
      "attr": {"scalar": "0.5"}, 
      "inputs": [[650, 0, 0]]
    }, 
    {
      "op": "elemwise_add", 
      "name": "_plus11", 
      "inputs": [[643, 0, 0], [651, 0, 0]]
    }, 
    {
      "op": "Activation", 
      "name": "res4b6_branch2b_st_relu", 
      "attr": {"act_type": "relu"}, 
      "inputs": [[652, 0, 0]]
    }, 
    {
      "op": "null", 
      "name": "res4b6_branch2c_weight", 
      "attr": {
        "kernel": "(1, 1, 1)", 
        "no_bias": "True", 
        "num_filter": "1024", 
        "pad": "(0, 0, 0)", 
        "stride": "(1, 1, 1)"
      }, 
      "inputs": []
    }, 
    {
      "op": "Convolution", 
      "name": "res4b6_branch2c", 
      "attr": {
        "kernel": "(1, 1, 1)", 
        "no_bias": "True", 
        "num_filter": "1024", 
        "pad": "(0, 0, 0)", 
        "stride": "(1, 1, 1)"
      }, 
      "inputs": [[653, 0, 0], [654, 0, 0]]
    }, 
    {
      "op": "null", 
      "name": "bn4b6_branch2c_gamma", 
      "attr": {
        "eps": "1e-05", 
        "fix_gamma": "False"
      }, 
      "inputs": []
    }, 
    {
      "op": "null", 
      "name": "bn4b6_branch2c_beta", 
      "attr": {
        "eps": "1e-05", 
        "fix_gamma": "False"
      }, 
      "inputs": []
    }, 
    {
      "op": "null", 
      "name": "bn4b6_branch2c_moving_mean", 
      "attr": {
        "__init__": "[\"zero\", {}]", 
        "eps": "1e-05", 
        "fix_gamma": "False"
      }, 
      "inputs": []
    }, 
    {
      "op": "null", 
      "name": "bn4b6_branch2c_moving_var", 
      "attr": {
        "__init__": "[\"one\", {}]", 
        "eps": "1e-05", 
        "fix_gamma": "False"
      }, 
      "inputs": []
    }, 
    {
      "op": "BatchNorm", 
      "name": "bn4b6_branch2c", 
      "attr": {
        "eps": "1e-05", 
        "fix_gamma": "False"
      }, 
      "inputs": [[655, 0, 0], [656, 0, 0], [657, 0, 0], [658, 0, 1], [659, 0, 1]]
    }, 
    {
      "op": "broadcast_add", 
      "name": "res4b6", 
      "inputs": [[626, 0, 0], [660, 0, 0]]
    }, 
    {
      "op": "Activation", 
      "name": "res4b6_relu", 
      "attr": {"act_type": "relu"}, 
      "inputs": [[661, 0, 0]]
    }, 
    {
      "op": "null", 
      "name": "res4b7_branch2a_weight", 
      "attr": {
        "kernel": "(1, 1, 1)", 
        "no_bias": "True", 
        "num_filter": "256", 
        "pad": "(0, 0, 0)", 
        "stride": "(1, 1, 1)"
      }, 
      "inputs": []
    }, 
    {
      "op": "Convolution", 
      "name": "res4b7_branch2a", 
      "attr": {
        "kernel": "(1, 1, 1)", 
        "no_bias": "True", 
        "num_filter": "256", 
        "pad": "(0, 0, 0)", 
        "stride": "(1, 1, 1)"
      }, 
      "inputs": [[662, 0, 0], [663, 0, 0]]
    }, 
    {
      "op": "null", 
      "name": "bn4b7_branch2a_gamma", 
      "attr": {
        "eps": "1e-05", 
        "fix_gamma": "False"
      }, 
      "inputs": []
    }, 
    {
      "op": "null", 
      "name": "bn4b7_branch2a_beta", 
      "attr": {
        "eps": "1e-05", 
        "fix_gamma": "False"
      }, 
      "inputs": []
    }, 
    {
      "op": "null", 
      "name": "bn4b7_branch2a_moving_mean", 
      "attr": {
        "__init__": "[\"zero\", {}]", 
        "eps": "1e-05", 
        "fix_gamma": "False"
      }, 
      "inputs": []
    }, 
    {
      "op": "null", 
      "name": "bn4b7_branch2a_moving_var", 
      "attr": {
        "__init__": "[\"one\", {}]", 
        "eps": "1e-05", 
        "fix_gamma": "False"
      }, 
      "inputs": []
    }, 
    {
      "op": "BatchNorm", 
      "name": "bn4b7_branch2a", 
      "attr": {
        "eps": "1e-05", 
        "fix_gamma": "False"
      }, 
      "inputs": [[664, 0, 0], [665, 0, 0], [666, 0, 0], [667, 0, 1], [668, 0, 1]]
    }, 
    {
      "op": "Activation", 
      "name": "res4b7_branch2a_relu", 
      "attr": {"act_type": "relu"}, 
      "inputs": [[669, 0, 0]]
    }, 
    {
      "op": "null", 
      "name": "res4b7_branch2b_weight", 
      "attr": {
        "kernel": "(1, 3, 3)", 
        "no_bias": "True", 
        "num_filter": "256", 
        "pad": "(0, 1, 1)", 
        "stride": "(1, 1, 1)"
      }, 
      "inputs": []
    }, 
    {
      "op": "Convolution", 
      "name": "res4b7_branch2b", 
      "attr": {
        "kernel": "(1, 3, 3)", 
        "no_bias": "True", 
        "num_filter": "256", 
        "pad": "(0, 1, 1)", 
        "stride": "(1, 1, 1)"
      }, 
      "inputs": [[670, 0, 0], [671, 0, 0]]
    }, 
    {
      "op": "null", 
      "name": "bn4b7_branch2b_gamma", 
      "attr": {
        "eps": "1e-05", 
        "fix_gamma": "False"
      }, 
      "inputs": []
    }, 
    {
      "op": "null", 
      "name": "bn4b7_branch2b_beta", 
      "attr": {
        "eps": "1e-05", 
        "fix_gamma": "False"
      }, 
      "inputs": []
    }, 
    {
      "op": "null", 
      "name": "bn4b7_branch2b_moving_mean", 
      "attr": {
        "__init__": "[\"zero\", {}]", 
        "eps": "1e-05", 
        "fix_gamma": "False"
      }, 
      "inputs": []
    }, 
    {
      "op": "null", 
      "name": "bn4b7_branch2b_moving_var", 
      "attr": {
        "__init__": "[\"one\", {}]", 
        "eps": "1e-05", 
        "fix_gamma": "False"
      }, 
      "inputs": []
    }, 
    {
      "op": "BatchNorm", 
      "name": "bn4b7_branch2b", 
      "attr": {
        "eps": "1e-05", 
        "fix_gamma": "False"
      }, 
      "inputs": [[672, 0, 0], [673, 0, 0], [674, 0, 0], [675, 0, 1], [676, 0, 1]]
    }, 
    {
      "op": "Activation", 
      "name": "res4b7_branch2b_relu", 
      "attr": {"act_type": "relu"}, 
      "inputs": [[677, 0, 0]]
    }, 
    {
      "op": "null", 
      "name": "res4b7_branch2b_t_weight", 
      "attr": {
        "kernel": "(3, 1, 1)", 
        "no_bias": "True", 
        "num_filter": "256", 
        "pad": "(1, 0, 0)", 
        "stride": "(1, 1, 1)"
      }, 
      "inputs": []
    }, 
    {
      "op": "Convolution", 
      "name": "res4b7_branch2b_t", 
      "attr": {
        "kernel": "(3, 1, 1)", 
        "no_bias": "True", 
        "num_filter": "256", 
        "pad": "(1, 0, 0)", 
        "stride": "(1, 1, 1)"
      }, 
      "inputs": [[678, 0, 0], [679, 0, 0]]
    }, 
    {
      "op": "null", 
      "name": "bn4b7_branch2b_t_gamma", 
      "attr": {
        "eps": "1e-05", 
        "fix_gamma": "False"
      }, 
      "inputs": []
    }, 
    {
      "op": "null", 
      "name": "bn4b7_branch2b_t_beta", 
      "attr": {
        "eps": "1e-05", 
        "fix_gamma": "False"
      }, 
      "inputs": []
    }, 
    {
      "op": "null", 
      "name": "bn4b7_branch2b_t_moving_mean", 
      "attr": {
        "__init__": "[\"zero\", {}]", 
        "eps": "1e-05", 
        "fix_gamma": "False"
      }, 
      "inputs": []
    }, 
    {
      "op": "null", 
      "name": "bn4b7_branch2b_t_moving_var", 
      "attr": {
        "__init__": "[\"one\", {}]", 
        "eps": "1e-05", 
        "fix_gamma": "False"
      }, 
      "inputs": []
    }, 
    {
      "op": "BatchNorm", 
      "name": "bn4b7_branch2b_t", 
      "attr": {
        "eps": "1e-05", 
        "fix_gamma": "False"
      }, 
      "inputs": [[680, 0, 0], [681, 0, 0], [682, 0, 0], [683, 0, 1], [684, 0, 1]]
    }, 
    {
      "op": "Activation", 
      "name": "res4b7_branch2b_t_relu", 
      "attr": {"act_type": "relu"}, 
      "inputs": [[685, 0, 0]]
    }, 
    {
      "op": "null", 
      "name": "res4b7_branch2c_weight", 
      "attr": {
        "kernel": "(1, 1, 1)", 
        "no_bias": "True", 
        "num_filter": "1024", 
        "pad": "(0, 0, 0)", 
        "stride": "(1, 1, 1)"
      }, 
      "inputs": []
    }, 
    {
      "op": "Convolution", 
      "name": "res4b7_branch2c", 
      "attr": {
        "kernel": "(1, 1, 1)", 
        "no_bias": "True", 
        "num_filter": "1024", 
        "pad": "(0, 0, 0)", 
        "stride": "(1, 1, 1)"
      }, 
      "inputs": [[686, 0, 0], [687, 0, 0]]
    }, 
    {
      "op": "null", 
      "name": "bn4b7_branch2c_gamma", 
      "attr": {
        "eps": "1e-05", 
        "fix_gamma": "False"
      }, 
      "inputs": []
    }, 
    {
      "op": "null", 
      "name": "bn4b7_branch2c_beta", 
      "attr": {
        "eps": "1e-05", 
        "fix_gamma": "False"
      }, 
      "inputs": []
    }, 
    {
      "op": "null", 
      "name": "bn4b7_branch2c_moving_mean", 
      "attr": {
        "__init__": "[\"zero\", {}]", 
        "eps": "1e-05", 
        "fix_gamma": "False"
      }, 
      "inputs": []
    }, 
    {
      "op": "null", 
      "name": "bn4b7_branch2c_moving_var", 
      "attr": {
        "__init__": "[\"one\", {}]", 
        "eps": "1e-05", 
        "fix_gamma": "False"
      }, 
      "inputs": []
    }, 
    {
      "op": "BatchNorm", 
      "name": "bn4b7_branch2c", 
      "attr": {
        "eps": "1e-05", 
        "fix_gamma": "False"
      }, 
      "inputs": [[688, 0, 0], [689, 0, 0], [690, 0, 0], [691, 0, 1], [692, 0, 1]]
    }, 
    {
      "op": "broadcast_add", 
      "name": "res4b7", 
      "inputs": [[662, 0, 0], [693, 0, 0]]
    }, 
    {
      "op": "Activation", 
      "name": "res4b7_relu", 
      "attr": {"act_type": "relu"}, 
      "inputs": [[694, 0, 0]]
    }, 
    {
      "op": "null", 
      "name": "res4b8_branch2a_weight", 
      "attr": {
        "kernel": "(1, 1, 1)", 
        "no_bias": "True", 
        "num_filter": "256", 
        "pad": "(0, 0, 0)", 
        "stride": "(1, 1, 1)"
      }, 
      "inputs": []
    }, 
    {
      "op": "Convolution", 
      "name": "res4b8_branch2a", 
      "attr": {
        "kernel": "(1, 1, 1)", 
        "no_bias": "True", 
        "num_filter": "256", 
        "pad": "(0, 0, 0)", 
        "stride": "(1, 1, 1)"
      }, 
      "inputs": [[695, 0, 0], [696, 0, 0]]
    }, 
    {
      "op": "null", 
      "name": "bn4b8_branch2a_gamma", 
      "attr": {
        "eps": "1e-05", 
        "fix_gamma": "False"
      }, 
      "inputs": []
    }, 
    {
      "op": "null", 
      "name": "bn4b8_branch2a_beta", 
      "attr": {
        "eps": "1e-05", 
        "fix_gamma": "False"
      }, 
      "inputs": []
    }, 
    {
      "op": "null", 
      "name": "bn4b8_branch2a_moving_mean", 
      "attr": {
        "__init__": "[\"zero\", {}]", 
        "eps": "1e-05", 
        "fix_gamma": "False"
      }, 
      "inputs": []
    }, 
    {
      "op": "null", 
      "name": "bn4b8_branch2a_moving_var", 
      "attr": {
        "__init__": "[\"one\", {}]", 
        "eps": "1e-05", 
        "fix_gamma": "False"
      }, 
      "inputs": []
    }, 
    {
      "op": "BatchNorm", 
      "name": "bn4b8_branch2a", 
      "attr": {
        "eps": "1e-05", 
        "fix_gamma": "False"
      }, 
      "inputs": [[697, 0, 0], [698, 0, 0], [699, 0, 0], [700, 0, 1], [701, 0, 1]]
    }, 
    {
      "op": "Activation", 
      "name": "res4b8_branch2a_relu", 
      "attr": {"act_type": "relu"}, 
      "inputs": [[702, 0, 0]]
    }, 
    {
      "op": "null", 
      "name": "res4b8_branch2b_weight", 
      "attr": {
        "kernel": "(1, 3, 3)", 
        "no_bias": "True", 
        "num_filter": "256", 
        "pad": "(0, 1, 1)", 
        "stride": "(1, 1, 1)"
      }, 
      "inputs": []
    }, 
    {
      "op": "Convolution", 
      "name": "res4b8_branch2b", 
      "attr": {
        "kernel": "(1, 3, 3)", 
        "no_bias": "True", 
        "num_filter": "256", 
        "pad": "(0, 1, 1)", 
        "stride": "(1, 1, 1)"
      }, 
      "inputs": [[703, 0, 0], [704, 0, 0]]
    }, 
    {
      "op": "null", 
      "name": "bn4b8_branch2b_gamma", 
      "attr": {
        "eps": "1e-05", 
        "fix_gamma": "False"
      }, 
      "inputs": []
    }, 
    {
      "op": "null", 
      "name": "bn4b8_branch2b_beta", 
      "attr": {
        "eps": "1e-05", 
        "fix_gamma": "False"
      }, 
      "inputs": []
    }, 
    {
      "op": "null", 
      "name": "bn4b8_branch2b_moving_mean", 
      "attr": {
        "__init__": "[\"zero\", {}]", 
        "eps": "1e-05", 
        "fix_gamma": "False"
      }, 
      "inputs": []
    }, 
    {
      "op": "null", 
      "name": "bn4b8_branch2b_moving_var", 
      "attr": {
        "__init__": "[\"one\", {}]", 
        "eps": "1e-05", 
        "fix_gamma": "False"
      }, 
      "inputs": []
    }, 
    {
      "op": "BatchNorm", 
      "name": "bn4b8_branch2b", 
      "attr": {
        "eps": "1e-05", 
        "fix_gamma": "False"
      }, 
      "inputs": [[705, 0, 0], [706, 0, 0], [707, 0, 0], [708, 0, 1], [709, 0, 1]]
    }, 
    {
      "op": "Activation", 
      "name": "res4b8_branch2b_relu", 
      "attr": {"act_type": "relu"}, 
      "inputs": [[710, 0, 0]]
    }, 
    {
      "op": "_mul_scalar", 
      "name": "_mulscalar24", 
      "attr": {"scalar": "1.0"}, 
      "inputs": [[711, 0, 0]]
    }, 
    {
      "op": "null", 
      "name": "res4b8_branch2b_t_weight", 
      "attr": {
        "kernel": "(3, 1, 1)", 
        "no_bias": "True", 
        "num_filter": "256", 
        "pad": "(1, 0, 0)", 
        "stride": "(1, 1, 1)"
      }, 
      "inputs": []
    }, 
    {
      "op": "Convolution", 
      "name": "res4b8_branch2b_t", 
      "attr": {
        "kernel": "(3, 1, 1)", 
        "no_bias": "True", 
        "num_filter": "256", 
        "pad": "(1, 0, 0)", 
        "stride": "(1, 1, 1)"
      }, 
      "inputs": [[703, 0, 0], [713, 0, 0]]
    }, 
    {
      "op": "null", 
      "name": "bn4b8_branch2b_t_gamma", 
      "attr": {
        "eps": "1e-05", 
        "fix_gamma": "False"
      }, 
      "inputs": []
    }, 
    {
      "op": "null", 
      "name": "bn4b8_branch2b_t_beta", 
      "attr": {
        "eps": "1e-05", 
        "fix_gamma": "False"
      }, 
      "inputs": []
    }, 
    {
      "op": "null", 
      "name": "bn4b8_branch2b_t_moving_mean", 
      "attr": {
        "__init__": "[\"zero\", {}]", 
        "eps": "1e-05", 
        "fix_gamma": "False"
      }, 
      "inputs": []
    }, 
    {
      "op": "null", 
      "name": "bn4b8_branch2b_t_moving_var", 
      "attr": {
        "__init__": "[\"one\", {}]", 
        "eps": "1e-05", 
        "fix_gamma": "False"
      }, 
      "inputs": []
    }, 
    {
      "op": "BatchNorm", 
      "name": "bn4b8_branch2b_t", 
…
      "attr": {"act_type": "relu"}, 
      "inputs": [[1666, 0, 0]]
    }, 
    {
      "op": "null", 
      "name": "res4b35_branch2c_weight", 
      "attr": {
        "kernel": "(1, 1, 1)", 
        "no_bias": "True", 
        "num_filter": "1024", 
        "pad": "(0, 0, 0)", 
        "stride": "(1, 1, 1)"
      }, 
      "inputs": []
    }, 
    {
      "op": "Convolution", 
      "name": "res4b35_branch2c", 
      "attr": {
        "kernel": "(1, 1, 1)", 
        "no_bias": "True", 
        "num_filter": "1024", 
        "pad": "(0, 0, 0)", 
        "stride": "(1, 1, 1)"
      }, 
      "inputs": [[1667, 0, 0], [1668, 0, 0]]
    }, 
    {
      "op": "null", 
      "name": "bn4b35_branch2c_gamma", 
      "attr": {
        "eps": "1e-05", 
        "fix_gamma": "False"
      }, 
      "inputs": []
    }, 
    {
      "op": "null", 
      "name": "bn4b35_branch2c_beta", 
      "attr": {
        "eps": "1e-05", 
        "fix_gamma": "False"
      }, 
      "inputs": []
    }, 
    {
      "op": "null", 
      "name": "bn4b35_branch2c_moving_mean", 
      "attr": {
        "__init__": "[\"zero\", {}]", 
        "eps": "1e-05", 
        "fix_gamma": "False"
      }, 
      "inputs": []
    }, 
    {
      "op": "null", 
      "name": "bn4b35_branch2c_moving_var", 
      "attr": {
        "__init__": "[\"one\", {}]", 
        "eps": "1e-05", 
        "fix_gamma": "False"
      }, 
      "inputs": []
    }, 
    {
      "op": "BatchNorm", 
      "name": "bn4b35_branch2c", 
      "attr": {
        "eps": "1e-05", 
        "fix_gamma": "False"
      }, 
      "inputs": [[1669, 0, 0], [1670, 0, 0], [1671, 0, 0], [1672, 0, 1], [1673, 0, 1]]
    }, 
    {
      "op": "broadcast_add", 
      "name": "res4b35", 
      "inputs": [[1640, 0, 0], [1674, 0, 0]]
    }, 
    {
      "op": "Activation", 
      "name": "res4b35_relu", 
      "attr": {"act_type": "relu"}, 
      "inputs": [[1675, 0, 0]]
    }, 
    {
      "op": "Pooling", 
      "name": "res5a_pool", 
      "attr": {
        "kernel": "(2, 1, 1)", 
        "pad": "(0, 0, 0)", 
        "pool_type": "max", 
        "pooling_convention": "full", 
        "stride": "(2, 1, 1)"
      }, 
      "inputs": [[1676, 0, 0]]
    }, 
    {
      "op": "Reshape", 
      "name": "res5a_reshape", 
      "attr": {"shape": "(0, 0, 10, 10)"}, 
      "inputs": [[1677, 0, 0]]
    }, 
    {
      "op": "null", 
      "name": "res5a_branch1_weight", 
      "attr": {
        "kernel": "(1, 1)", 
        "no_bias": "True", 
        "num_filter": "2048", 
        "pad": "(0, 0)", 
        "stride": "(2, 2)"
      }, 
      "inputs": []
    }, 
    {
      "op": "Convolution", 
      "name": "res5a_branch1", 
      "attr": {
        "kernel": "(1, 1)", 
        "no_bias": "True", 
        "num_filter": "2048", 
        "pad": "(0, 0)", 
        "stride": "(2, 2)"
      }, 
      "inputs": [[1678, 0, 0], [1679, 0, 0]]
    }, 
    {
      "op": "null", 
      "name": "bn5a_branch1_gamma", 
      "attr": {
        "eps": "1e-05", 
        "fix_gamma": "False"
      }, 
      "inputs": []
    }, 
    {
      "op": "null", 
      "name": "bn5a_branch1_beta", 
      "attr": {
        "eps": "1e-05", 
        "fix_gamma": "False"
      }, 
      "inputs": []
    }, 
    {
      "op": "null", 
      "name": "bn5a_branch1_moving_mean", 
      "attr": {
        "__init__": "[\"zero\", {}]", 
        "eps": "1e-05", 
        "fix_gamma": "False"
      }, 
      "inputs": []
    }, 
    {
      "op": "null", 
      "name": "bn5a_branch1_moving_var", 
      "attr": {
        "__init__": "[\"one\", {}]", 
        "eps": "1e-05", 
        "fix_gamma": "False"
      }, 
      "inputs": []
    }, 
    {
      "op": "BatchNorm", 
      "name": "bn5a_branch1", 
      "attr": {
        "eps": "1e-05", 
        "fix_gamma": "False"
      }, 
      "inputs": [[1680, 0, 0], [1681, 0, 0], [1682, 0, 0], [1683, 0, 1], [1684, 0, 1]]
    }, 
    {
      "op": "null", 
      "name": "res5a_branch2a_weight", 
      "attr": {
        "kernel": "(1, 1)", 
        "no_bias": "True", 
        "num_filter": "512", 
        "pad": "(0, 0)", 
        "stride": "(2, 2)"
      }, 
      "inputs": []
    }, 
    {
      "op": "Convolution", 
      "name": "res5a_branch2a", 
      "attr": {
        "kernel": "(1, 1)", 
        "no_bias": "True", 
        "num_filter": "512", 
        "pad": "(0, 0)", 
        "stride": "(2, 2)"
      }, 
      "inputs": [[1678, 0, 0], [1686, 0, 0]]
    }, 
    {
      "op": "null", 
      "name": "bn5a_branch2a_gamma", 
      "attr": {
        "eps": "1e-05", 
        "fix_gamma": "False"
      }, 
      "inputs": []
    }, 
    {
      "op": "null", 
      "name": "bn5a_branch2a_beta", 
      "attr": {
        "eps": "1e-05", 
        "fix_gamma": "False"
      }, 
      "inputs": []
    }, 
    {
      "op": "null", 
      "name": "bn5a_branch2a_moving_mean", 
      "attr": {
        "__init__": "[\"zero\", {}]", 
        "eps": "1e-05", 
        "fix_gamma": "False"
      }, 
      "inputs": []
    }, 
    {
      "op": "null", 
      "name": "bn5a_branch2a_moving_var", 
      "attr": {
        "__init__": "[\"one\", {}]", 
        "eps": "1e-05", 
        "fix_gamma": "False"
      }, 
      "inputs": []
    }, 
    {
      "op": "BatchNorm", 
      "name": "bn5a_branch2a", 
      "attr": {
        "eps": "1e-05", 
        "fix_gamma": "False"
      }, 
      "inputs": [[1687, 0, 0], [1688, 0, 0], [1689, 0, 0], [1690, 0, 1], [1691, 0, 1]]
    }, 
    {
      "op": "Activation", 
      "name": "res5a_branch2a_relu", 
      "attr": {"act_type": "relu"}, 
      "inputs": [[1692, 0, 0]]
    }, 
    {
      "op": "null", 
      "name": "res5a_branch2b_weight", 
      "attr": {
        "kernel": "(3, 3)", 
        "no_bias": "True", 
        "num_filter": "512", 
        "pad": "(1, 1)", 
        "stride": "(1, 1)"
      }, 
      "inputs": []
    }, 
    {
      "op": "Convolution", 
      "name": "res5a_branch2b", 
      "attr": {
        "kernel": "(3, 3)", 
        "no_bias": "True", 
        "num_filter": "512", 
        "pad": "(1, 1)", 
        "stride": "(1, 1)"
      }, 
      "inputs": [[1693, 0, 0], [1694, 0, 0]]
    }, 
    {
      "op": "null", 
      "name": "bn5a_branch2b_gamma", 
      "attr": {
        "eps": "1e-05", 
        "fix_gamma": "False"
      }, 
      "inputs": []
    }, 
    {
      "op": "null", 
      "name": "bn5a_branch2b_beta", 
      "attr": {
        "eps": "1e-05", 
        "fix_gamma": "False"
      }, 
      "inputs": []
    }, 
    {
      "op": "null", 
      "name": "bn5a_branch2b_moving_mean", 
      "attr": {
        "__init__": "[\"zero\", {}]", 
        "eps": "1e-05", 
        "fix_gamma": "False"
      }, 
      "inputs": []
    }, 
    {
      "op": "null", 
      "name": "bn5a_branch2b_moving_var", 
      "attr": {
        "__init__": "[\"one\", {}]", 
        "eps": "1e-05", 
        "fix_gamma": "False"
      }, 
      "inputs": []
    }, 
    {
      "op": "BatchNorm", 
      "name": "bn5a_branch2b", 
      "attr": {
        "eps": "1e-05", 
        "fix_gamma": "False"
      }, 
      "inputs": [[1695, 0, 0], [1696, 0, 0], [1697, 0, 0], [1698, 0, 1], [1699, 0, 1]]
    }, 
    {
      "op": "Activation", 
      "name": "res5a_branch2b_relu", 
      "attr": {"act_type": "relu"}, 
      "inputs": [[1700, 0, 0]]
    }, 
    {
      "op": "null", 
      "name": "res5a_branch2c_weight", 
      "attr": {
        "kernel": "(1, 1)", 
        "no_bias": "True", 
        "num_filter": "2048", 
        "pad": "(0, 0)", 
        "stride": "(1, 1)"
      }, 
      "inputs": []
    }, 
    {
      "op": "Convolution", 
      "name": "res5a_branch2c", 
      "attr": {
        "kernel": "(1, 1)", 
        "no_bias": "True", 
        "num_filter": "2048", 
        "pad": "(0, 0)", 
        "stride": "(1, 1)"
      }, 
      "inputs": [[1701, 0, 0], [1702, 0, 0]]
    }, 
    {
      "op": "null", 
      "name": "bn5a_branch2c_gamma", 
      "attr": {
        "eps": "1e-05", 
        "fix_gamma": "False"
      }, 
      "inputs": []
    }, 
    {
      "op": "null", 
      "name": "bn5a_branch2c_beta", 
      "attr": {
        "eps": "1e-05", 
        "fix_gamma": "False"
      }, 
      "inputs": []
    }, 
    {
      "op": "null", 
      "name": "bn5a_branch2c_moving_mean", 
      "attr": {
        "__init__": "[\"zero\", {}]", 
        "eps": "1e-05", 
        "fix_gamma": "False"
      }, 
      "inputs": []
    }, 
    {
      "op": "null", 
      "name": "bn5a_branch2c_moving_var", 
      "attr": {
        "__init__": "[\"one\", {}]", 
        "eps": "1e-05", 
        "fix_gamma": "False"
      }, 
      "inputs": []
    }, 
    {
      "op": "BatchNorm", 
      "name": "bn5a_branch2c", 
      "attr": {
        "eps": "1e-05", 
        "fix_gamma": "False"
      }, 
      "inputs": [[1703, 0, 0], [1704, 0, 0], [1705, 0, 0], [1706, 0, 1], [1707, 0, 1]]
    }, 
    {
      "op": "broadcast_add", 
      "name": "res5a", 
      "inputs": [[1685, 0, 0], [1708, 0, 0]]
    }, 
    {
      "op": "Activation", 
      "name": "res5a_relu", 
      "attr": {"act_type": "relu"}, 
      "inputs": [[1709, 0, 0]]
    }, 
    {
      "op": "null", 
      "name": "res5b_branch2a_weight", 
      "attr": {
        "kernel": "(1, 1)", 
        "no_bias": "True", 
        "num_filter": "512", 
        "pad": "(0, 0)", 
        "stride": "(1, 1)"
      }, 
      "inputs": []
    }, 
    {
      "op": "Convolution", 
      "name": "res5b_branch2a", 
      "attr": {
        "kernel": "(1, 1)", 
        "no_bias": "True", 
        "num_filter": "512", 
        "pad": "(0, 0)", 
        "stride": "(1, 1)"
      }, 
      "inputs": [[1710, 0, 0], [1711, 0, 0]]
    }, 
    {
      "op": "null", 
      "name": "bn5b_branch2a_gamma", 
      "attr": {
        "eps": "1e-05", 
        "fix_gamma": "False"
      }, 
      "inputs": []
    }, 
    {
      "op": "null", 
      "name": "bn5b_branch2a_beta", 
      "attr": {
        "eps": "1e-05", 
        "fix_gamma": "False"
      }, 
      "inputs": []
    }, 
    {
      "op": "null", 
      "name": "bn5b_branch2a_moving_mean", 
      "attr": {
        "__init__": "[\"zero\", {}]", 
        "eps": "1e-05", 
        "fix_gamma": "False"
      }, 
      "inputs": []
    }, 
    {
      "op": "null", 
      "name": "bn5b_branch2a_moving_var", 
      "attr": {
        "__init__": "[\"one\", {}]", 
        "eps": "1e-05", 
        "fix_gamma": "False"
      }, 
      "inputs": []
    }, 
    {
      "op": "BatchNorm", 
      "name": "bn5b_branch2a", 
      "attr": {
        "eps": "1e-05", 
        "fix_gamma": "False"
      }, 
      "inputs": [[1712, 0, 0], [1713, 0, 0], [1714, 0, 0], [1715, 0, 1], [1716, 0, 1]]
    }, 
    {
      "op": "Activation", 
      "name": "res5b_branch2a_relu", 
      "attr": {"act_type": "relu"}, 
      "inputs": [[1717, 0, 0]]
    }, 
    {
      "op": "null", 
      "name": "res5b_branch2b_weight", 
      "attr": {
        "kernel": "(3, 3)", 
        "no_bias": "True", 
        "num_filter": "512", 
        "pad": "(1, 1)", 
        "stride": "(1, 1)"
      }, 
      "inputs": []
    }, 
    {
      "op": "Convolution", 
      "name": "res5b_branch2b", 
      "attr": {
        "kernel": "(3, 3)", 
        "no_bias": "True", 
        "num_filter": "512", 
        "pad": "(1, 1)", 
        "stride": "(1, 1)"
      }, 
      "inputs": [[1718, 0, 0], [1719, 0, 0]]
    }, 
    {
      "op": "null", 
      "name": "bn5b_branch2b_gamma", 
      "attr": {
        "eps": "1e-05", 
        "fix_gamma": "False"
      }, 
      "inputs": []
    }, 
    {
      "op": "null", 
      "name": "bn5b_branch2b_beta", 
      "attr": {
        "eps": "1e-05", 
        "fix_gamma": "False"
      }, 
      "inputs": []
    }, 
    {
      "op": "null", 
      "name": "bn5b_branch2b_moving_mean", 
      "attr": {
        "__init__": "[\"zero\", {}]", 
        "eps": "1e-05", 
        "fix_gamma": "False"
      }, 
      "inputs": []
    }, 
    {
      "op": "null", 
      "name": "bn5b_branch2b_moving_var", 
      "attr": {
        "__init__": "[\"one\", {}]", 
        "eps": "1e-05", 
        "fix_gamma": "False"
      }, 
      "inputs": []
    }, 
    {
      "op": "BatchNorm", 
      "name": "bn5b_branch2b", 
      "attr": {
        "eps": "1e-05", 
        "fix_gamma": "False"
      }, 
      "inputs": [[1720, 0, 0], [1721, 0, 0], [1722, 0, 0], [1723, 0, 1], [1724, 0, 1]]
    }, 
    {
      "op": "Activation", 
      "name": "res5b_branch2b_relu", 
      "attr": {"act_type": "relu"}, 
      "inputs": [[1725, 0, 0]]
    }, 
    {
      "op": "null", 
      "name": "res5b_branch2c_weight", 
      "attr": {
        "kernel": "(1, 1)", 
        "no_bias": "True", 
        "num_filter": "2048", 
        "pad": "(0, 0)", 
        "stride": "(1, 1)"
      }, 
      "inputs": []
    }, 
    {
      "op": "Convolution", 
      "name": "res5b_branch2c", 
      "attr": {
        "kernel": "(1, 1)", 
        "no_bias": "True", 
        "num_filter": "2048", 
        "pad": "(0, 0)", 
        "stride": "(1, 1)"
      }, 
      "inputs": [[1726, 0, 0], [1727, 0, 0]]
    }, 
    {
      "op": "null", 
      "name": "bn5b_branch2c_gamma", 
      "attr": {
        "eps": "1e-05", 
        "fix_gamma": "False"
      }, 
      "inputs": []
    }, 
    {
      "op": "null", 
      "name": "bn5b_branch2c_beta", 
      "attr": {
        "eps": "1e-05", 
        "fix_gamma": "False"
      }, 
      "inputs": []
    }, 
    {
      "op": "null", 
      "name": "bn5b_branch2c_moving_mean", 
      "attr": {
        "__init__": "[\"zero\", {}]", 
        "eps": "1e-05", 
        "fix_gamma": "False"
      }, 
      "inputs": []
    }, 
    {
      "op": "null", 
      "name": "bn5b_branch2c_moving_var", 
      "attr": {
        "__init__": "[\"one\", {}]", 
        "eps": "1e-05", 
        "fix_gamma": "False"
      }, 
      "inputs": []
    }, 
    {
      "op": "BatchNorm", 
      "name": "bn5b_branch2c", 
      "attr": {
        "eps": "1e-05", 
        "fix_gamma": "False"
      }, 
      "inputs": [[1728, 0, 0], [1729, 0, 0], [1730, 0, 0], [1731, 0, 1], [1732, 0, 1]]
    }, 
    {
      "op": "broadcast_add", 
      "name": "res5b", 
      "inputs": [[1710, 0, 0], [1733, 0, 0]]
    }, 
    {
      "op": "Activation", 
      "name": "res5b_relu", 
      "attr": {"act_type": "relu"}, 
      "inputs": [[1734, 0, 0]]
    }, 
    {
      "op": "null", 
      "name": "res5c_branch2a_weight", 
      "attr": {
        "kernel": "(1, 1)", 
        "no_bias": "True", 
        "num_filter": "512", 
        "pad": "(0, 0)", 
        "stride": "(1, 1)"
      }, 
      "inputs": []
    }, 
    {
      "op": "Convolution", 
      "name": "res5c_branch2a", 
      "attr": {
        "kernel": "(1, 1)", 
        "no_bias": "True", 
        "num_filter": "512", 
        "pad": "(0, 0)", 
        "stride": "(1, 1)"
      }, 
      "inputs": [[1735, 0, 0], [1736, 0, 0]]
    }, 
    {
      "op": "null", 
      "name": "bn5c_branch2a_gamma", 
      "attr": {
        "eps": "1e-05", 
        "fix_gamma": "False"
      }, 
      "inputs": []
    }, 
    {
      "op": "null", 
      "name": "bn5c_branch2a_beta", 
      "attr": {
        "eps": "1e-05", 
        "fix_gamma": "False"
      }, 
      "inputs": []
    }, 
    {
      "op": "null", 
      "name": "bn5c_branch2a_moving_mean", 
      "attr": {
        "__init__": "[\"zero\", {}]", 
        "eps": "1e-05", 
        "fix_gamma": "False"
      }, 
      "inputs": []
    }, 
    {
      "op": "null", 
      "name": "bn5c_branch2a_moving_var", 
      "attr": {
        "__init__": "[\"one\", {}]", 
        "eps": "1e-05", 
        "fix_gamma": "False"
      }, 
      "inputs": []
    }, 
    {
      "op": "BatchNorm", 
      "name": "bn5c_branch2a", 
      "attr": {
        "eps": "1e-05", 
        "fix_gamma": "False"
      }, 
      "inputs": [[1737, 0, 0], [1738, 0, 0], [1739, 0, 0], [1740, 0, 1], [1741, 0, 1]]
    }, 
    {
      "op": "Activation", 
      "name": "res5c_branch2a_relu", 
      "attr": {"act_type": "relu"}, 
      "inputs": [[1742, 0, 0]]
    }, 
    {
      "op": "null", 
      "name": "res5c_branch2b_weight", 
      "attr": {
        "kernel": "(3, 3)", 
        "no_bias": "True", 
        "num_filter": "512", 
        "pad": "(1, 1)", 
        "stride": "(1, 1)"
      }, 
      "inputs": []
    }, 
    {
      "op": "Convolution", 
      "name": "res5c_branch2b", 
      "attr": {
        "kernel": "(3, 3)", 
        "no_bias": "True", 
        "num_filter": "512", 
        "pad": "(1, 1)", 
        "stride": "(1, 1)"
      }, 
      "inputs": [[1743, 0, 0], [1744, 0, 0]]
    }, 
    {
      "op": "null", 
      "name": "bn5c_branch2b_gamma", 
      "attr": {
        "eps": "1e-05", 
        "fix_gamma": "False"
      }, 
      "inputs": []
    }, 
    {
      "op": "null", 
      "name": "bn5c_branch2b_beta", 
      "attr": {
        "eps": "1e-05", 
        "fix_gamma": "False"
      }, 
      "inputs": []
    }, 
    {
      "op": "null", 
      "name": "bn5c_branch2b_moving_mean", 
      "attr": {
        "__init__": "[\"zero\", {}]", 
        "eps": "1e-05", 
        "fix_gamma": "False"
      }, 
      "inputs": []
    }, 
    {
      "op": "null", 
      "name": "bn5c_branch2b_moving_var", 
      "attr": {
        "__init__": "[\"one\", {}]", 
        "eps": "1e-05", 
        "fix_gamma": "False"
      }, 
      "inputs": []
    }, 
    {
      "op": "BatchNorm", 
      "name": "bn5c_branch2b", 
      "attr": {
        "eps": "1e-05", 
        "fix_gamma": "False"
      }, 
      "inputs": [[1745, 0, 0], [1746, 0, 0], [1747, 0, 0], [1748, 0, 1], [1749, 0, 1]]
    }, 
    {
      "op": "Activation", 
      "name": "res5c_branch2b_relu", 
      "attr": {"act_type": "relu"}, 
      "inputs": [[1750, 0, 0]]
    }, 
    {
      "op": "null", 
      "name": "res5c_branch2c_weight", 
      "attr": {
        "kernel": "(1, 1)", 
        "no_bias": "True", 
        "num_filter": "2048", 
        "pad": "(0, 0)", 
        "stride": "(1, 1)"
      }, 
      "inputs": []
    }, 
    {
      "op": "Convolution", 
      "name": "res5c_branch2c", 
      "attr": {
        "kernel": "(1, 1)", 
        "no_bias": "True", 
        "num_filter": "2048", 
        "pad": "(0, 0)", 
        "stride": "(1, 1)"
      }, 
      "inputs": [[1751, 0, 0], [1752, 0, 0]]
    }, 
    {
      "op": "null", 
      "name": "bn5c_branch2c_gamma", 
      "attr": {
        "eps": "1e-05", 
        "fix_gamma": "False"
      }, 
      "inputs": []
    }, 
    {
      "op": "null", 
      "name": "bn5c_branch2c_beta", 
      "attr": {
        "eps": "1e-05", 
        "fix_gamma": "False"
      }, 
      "inputs": []
    }, 
    {
      "op": "null", 
      "name": "bn5c_branch2c_moving_mean", 
      "attr": {
        "__init__": "[\"zero\", {}]", 
        "eps": "1e-05", 
        "fix_gamma": "False"
      }, 
      "inputs": []
    }, 
    {
      "op": "null", 
      "name": "bn5c_branch2c_moving_var", 
      "attr": {
        "__init__": "[\"one\", {}]", 
        "eps": "1e-05", 
        "fix_gamma": "False"
      }, 
      "inputs": []
    }, 
    {
      "op": "BatchNorm", 
      "name": "bn5c_branch2c", 
      "attr": {
        "eps": "1e-05", 
        "fix_gamma": "False"
      }, 
      "inputs": [[1753, 0, 0], [1754, 0, 0], [1755, 0, 0], [1756, 0, 1], [1757, 0, 1]]
    }, 
    {
      "op": "broadcast_add", 
      "name": "res5c", 
      "inputs": [[1735, 0, 0], [1758, 0, 0]]
    }, 
    {
      "op": "Activation", 
      "name": "res5c_relu", 
      "attr": {"act_type": "relu"}, 
      "inputs": [[1759, 0, 0]]
    }, 
    {
      "op": "Pooling", 
      "name": "pool5", 
      "attr": {
        "global_pool": "True", 
        "kernel": "(1, 1)", 
        "pool_type": "avg", 
        "pooling_convention": "full"
      }, 
      "inputs": [[1760, 0, 0]]
    }, 
    {
      "op": "Dropout", 
      "name": "pool5_drop", 
      "attr": {"p": "0.1"}, 
      "inputs": [[1761, 0, 0]]
    }, 
    {
      "op": "Flatten", 
      "name": "flatten_0", 
      "inputs": [[1762, 0, 0]]
    }, 
    {
      "op": "null", 
      "name": "fc_sports1m_weight", 
      "attr": {
        "no_bias": "False", 
        "num_hidden": "487"
      }, 
      "inputs": []
    }, 
    {
      "op": "null", 
      "name": "fc_sports1m_bias", 
      "attr": {
        "no_bias": "False", 
        "num_hidden": "487"
      }, 
      "inputs": []
    }, 
    {
      "op": "FullyConnected", 
      "name": "fc_sports1m", 
      "attr": {
        "no_bias": "False", 
        "num_hidden": "487"
      }, 
      "inputs": [[1763, 0, 0], [1764, 0, 0], [1765, 0, 0]]
    }, 
    {
      "op": "null", 
      "name": "prob_label", 
      "inputs": []
    }, 
    {
      "op": "SoftmaxOutput", 
      "name": "prob", 
      "inputs": [[1766, 0, 0], [1767, 0, 0]]
    }
  ], 
  "arg_nodes": [
    0, 
    1, 
    3, 
    4, 
    5, 
    6, 
    10, 
    12, 
    13, 
    14, 
    15, 
    17, 
    19, 
    20, 
    21, 
    22, 
    25, 
    27, 
    28, 
    29, 
    30, 
    33, 
    35, 
    36, 
    37, 
    38, 
    41, 
    43, 
    44, 
    45, 
    46, 
    50, 
    52, 
    53, 
    54, 
    55, 
    58, 
    60, 
    61, 
    62, 
    63, 
    67, 
    69, 
    70, 
    71, 
    72, 
    77, 
    79, 
    80, 
    81, 
    82, 
    86, 
    88, 
    89, 
    90, 
    91, 
    94, 
    96, 
    97, 
    98, 
    99, 
    103, 
    105, 
    106, 
    107, 
    108, 
    113, 
    115, 
    116, 
    117, 
    118, 
    123, 
    125, 
    126, 
    127, 
    128, 
    130, 
    132, 
    133, 
    134, 
    135, 
    138, 
    140, 
    141, 
    142, 
    143, 
    146, 
    148, 
    149, 
    150, 
    151, 
    154, 
    156, 
    157, 
    158, 
    159, 
    163, 
    165, 
    166, 
    167, 
    168, 
    171, 
    173, 
    174, 
    175, 
    176, 
    180, 
    182, 
    183, 
    184, 
    185, 
    190, 
    192, 
    193, 
    194, 
    195, 
    199, 
    201, 
    202, 
    203, 
    204, 
    207, 
    209, 
    210, 
    211, 
    212, 
    216, 
    218, 
    219, 
    220, 
    221, 
    226, 
    228, 
    229, 
    230, 
    231, 
    235, 
    237, 
    238, 
    239, 
    240, 
    243, 
    245, 
    246, 
    247, 
    248, 
    251, 
    253, 
    254, 
    255, 
    256, 
    259, 
    261, 
    262, 
    263, 
    264, 
    268, 
    270, 
    271, 
    272, 
    273, 
    276, 
    278, 
    279, 
    280, 
    281, 
    285, 
    287, 
    288, 
    289, 
    290, 
    295, 
    297, 
    298, 
    299, 
    300, 
    304, 
    306, 
    307, 
    308, 
    309, 
    312, 
    314, 
    315, 
    316, 
    317, 
    321, 
    323, 
    324, 
    325, 
    326, 
    331, 
    333, 
    334, 
    335, 
    336, 
    340, 
    342, 
    343, 
    344, 
    345, 
    348, 
    350, 
    351, 
    352, 
    353, 
    356, 
    358, 
    359, 
    360, 
    361, 
    364, 
    366, 
    367, 
    368, 
    369, 
    373, 
    375, 
    376, 
    377, 
    378, 
    381, 
    383, 
    384, 
    385, 
    386, 
    390, 
    392, 
    393, 
    394, 
    395, 
    400, 
    402, 
    403, 
    404, 
    405, 
    410, 
    412, 
    413, 
    414, 
    415, 
    417, 
    419, 
    420, 
    421, 
    422, 
    425, 
    427, 
    428, 
    429, 
    430, 
    434, 
    436, 
    437, 
    438, 
    439, 
    444, 
    446, 
    447, 
    448, 
    449, 
    453, 
    455, 
    456, 
    457, 
    458, 
    461, 
    463, 
    464, 
    465, 
    466, 
    469, 
    471, 
    472, 
    473, 
    474, 
    477, 
    479, 
    480, 
    481, 
    482, 
    486, 
    488, 
    489, 
    490, 
    491, 
    494, 
    496, 
    497, 
    498, 
    499, 
    503, 
    505, 
    506, 
    507, 
    508, 
    513, 
    515, 
    516, 
    517, 
    518, 
    522, 
    524, 
    525, 
    526, 
    527, 
    530, 
    532, 
    533, 
    534, 
    535, 
    539, 
    541, 
    542, 
    543, 
    544, 
    549, 
    551, 
    552, 
    553, 
    554, 
    558, 
    560, 
    561, 
    562, 
    563, 
    566, 
    568, 
    569, 
    570, 
    571, 
    574, 
    576, 
    577, 
    578, 
    579, 
    582, 
    584, 
    585, 
    586, 
    587, 
    591, 
    593, 
    594, 
    595, 
    596, 
    599, 
    601, 
    602, 
    603, 
    604, 
    608, 
    610, 
    611, 
    612, 
    613, 
    618, 
    620, 
    621, 
    622, 
    623, 
    627, 
    629, 
    630, 
    631, 
    632, 
    635, 
    637, 
    638, 
    639, 
    640, 
    644, 
    646, 
    647, 
    648, 
    649, 
    654, 
    656, 
    657, 
    658, 
    659, 
    663, 
    665, 
    666, 
    667, 
    668, 
    671, 
    673, 
    674, 
    675, 
    676, 
    679, 
    681, 
    682, 
    683, 
    684, 
    687, 
    689, 
    690, 
    691, 
    692, 
    696, 
    698, 
    699, 
    700, 
    701, 
    704, 
    706, 
    707, 
    708, 
    709, 
    713, 
    715, 
    716, 
    717, 
    718, 
    723, 
    725, 
    726, 
    727, 
    728, 
    732, 
    734, 
    735, 
    736, 
    737, 
    740, 
    742, 
    743, 
    744, 
    745, 
    749, 
    751, 
    752, 
    753, 
    754, 
    759, 
    761, 
    762, 
    763, 
    764, 
    768, 
    770, 
    771, 
    772, 
    773, 
    776, 
    778, 
    779, 
    780, 
    781, 
    784, 
    786, 
    787, 
    788, 
    789, 
    792, 
    794, 
    795, 
    796, 
    797, 
    801, 
    803, 
    804, 
    805, 
    806, 
    809, 
    811, 
    812, 
    813, 
    814, 
    818, 
    820, 
    821, 
    822, 
    823, 
    828, 
    830, 
    831, 
    832, 
    833, 
    837, 
    839, 
    840, 
    841, 
    842, 
    845, 
    847, 
    848, 
    849, 
    850, 
    854, 
    856, 
    857, 
    858, 
    859, 
    864, 
    866, 
    867, 
    868, 
    869, 
    873, 
    875, 
    876, 
    877, 
    878, 
    881, 
    883, 
    884, 
    885, 
    886, 
    889, 
    891, 
    892, 
    893, 
    894, 
    897, 
    899, 
    900, 
    901, 
    902, 
    906, 
    908, 
    909, 
    910, 
    911, 
    914, 
    916, 
    917, 
    918, 
    919, 
    923, 
    925, 
    926, 
    927, 
    928, 
    933, 
    935, 
    936, 
    937, 
    938, 
    942, 
    944, 
    945, 
    946, 
    947, 
    950, 
    952, 
    953, 
    954, 
    955, 
    959, 
    961, 
    962, 
    963, 
    964, 
    969, 
    971, 
    972, 
    973, 
    974, 
    978, 
    980, 
    981, 
    982, 
    983, 
    986, 
    988, 
    989, 
    990, 
    991, 
    994, 
    996, 
    997, 
    998, 
    999, 
    1002, 
    1004, 
    1005, 
    1006, 
    1007, 
    1011, 
    1013, 
    1014, 
    1015, 
    1016, 
    1019, 
    1021, 
    1022, 
    1023, 
    1024, 
    1028, 
    1030, 
    1031, 
    1032, 
    1033, 
    1038, 
    1040, 
    1041, 
    1042, 
    1043, 
    1047, 
    1049, 
    1050, 
    1051, 
    1052, 
    1055, 
    1057, 
    1058, 
    1059, 
    1060, 
    1064, 
    1066, 
    1067, 
    1068, 
    1069, 
    1074, 
    1076, 
    1077, 
    1078, 
    1079, 
    1083, 
    1085, 
    1086, 
    1087, 
    1088, 
    1091, 
    1093, 
    1094, 
    1095, 
    1096, 
    1099, 
    1101, 
    1102, 
    1103, 
    1104, 
    1107, 
    1109, 
    1110, 
    1111, 
    1112, 
    1116, 
    1118, 
    1119, 
    1120, 
    1121, 
    1124, 
    1126, 
    1127, 
    1128, 
    1129, 
    1133, 
    1135, 
    1136, 
    1137, 
    1138, 
    1143, 
    1145, 
    1146, 
    1147, 
    1148, 
    1152, 
    1154, 
    1155, 
    1156, 
    1157, 
    1160, 
    1162, 
    1163, 
    1164, 
    1165, 
    1169, 
    1171, 
    1172, 
    1173, 
    1174, 
    1179, 
    1181, 
    1182, 
    1183, 
    1184, 
    1188, 
    1190, 
    1191, 
    1192, 
    1193, 
    1196, 
    1198, 
    1199, 
    1200, 
    1201, 
    1204, 
    1206, 
    1207, 
    1208, 
    1209, 
    1212, 
    1214, 
    1215, 
    1216, 
    1217, 
    1221, 
    1223, 
    1224, 
    1225, 
    1226, 
    1229, 
    1231, 
    1232, 
    1233, 
    1234, 
    1238, 
    1240, 
    1241, 
    1242, 
    1243, 
    1248, 
    1250, 
    1251, 
    1252, 
    1253, 
    1257, 
    1259, 
    1260, 
    1261, 
    1262, 
    1265, 
    1267, 
    1268, 
    1269, 
    1270, 
    1274, 
    1276, 
    1277, 
    1278, 
    1279, 
    1284, 
    1286, 
    1287, 
    1288, 
    1289, 
    1293, 
    1295, 
    1296, 
    1297, 
    1298, 
    1301, 
    1303, 
    1304, 
    1305, 
    1306, 
    1309, 
    1311, 
    1312, 
    1313, 
    1314, 
    1317, 
    1319, 
    1320, 
    1321, 
    1322, 
    1326, 
    1328, 
    1329, 
    1330, 
    1331, 
    1334, 
    1336, 
    1337, 
    1338, 
    1339, 
    1343, 
    1345, 
    1346, 
    1347, 
    1348, 
    1353, 
    1355, 
    1356, 
    1357, 
    1358, 
    1362, 
    1364, 
    1365, 
    1366, 
    1367, 
    1370, 
    1372, 
    1373, 
    1374, 
    1375, 
    1379, 
    1381, 
    1382, 
    1383, 
    1384, 
    1389, 
    1391, 
    1392, 
    1393, 
    1394, 
    1398, 
    1400, 
    1401, 
    1402, 
    1403, 
    1406, 
    1408, 
    1409, 
    1410, 
    1411, 
    1414, 
    1416, 
    1417, 
    1418, 
    1419, 
    1422, 
    1424, 
    1425, 
    1426, 
    1427, 
    1431, 
    1433, 
    1434, 
    1435, 
    1436, 
    1439, 
    1441, 
    1442, 
    1443, 
    1444, 
    1448, 
    1450, 
    1451, 
    1452, 
    1453, 
    1458, 
    1460, 
    1461, 
    1462, 
    1463, 
    1467, 
    1469, 
    1470, 
    1471, 
    1472, 
    1475, 
    1477, 
    1478, 
    1479, 
    1480, 
    1484, 
    1486, 
    1487, 
    1488, 
    1489, 
    1494, 
    1496, 
    1497, 
    1498, 
    1499, 
    1503, 
    1505, 
    1506, 
    1507, 
    1508, 
    1511, 
    1513, 
    1514, 
    1515, 
    1516, 
    1519, 
    1521, 
    1522, 
    1523, 
    1524, 
    1527, 
    1529, 
    1530, 
    1531, 
    1532, 
    1536, 
    1538, 
    1539, 
    1540, 
    1541, 
    1544, 
    1546, 
    1547, 
    1548, 
    1549, 
    1553, 
    1555, 
    1556, 
    1557, 
    1558, 
    1563, 
    1565, 
    1566, 
    1567, 
    1568, 
    1572, 
    1574, 
    1575, 
    1576, 
    1577, 
    1580, 
    1582, 
    1583, 
    1584, 
    1585, 
    1589, 
    1591, 
    1592, 
    1593, 
    1594, 
    1599, 
    1601, 
    1602, 
    1603, 
    1604, 
    1608, 
    1610, 
    1611, 
    1612, 
    1613, 
    1616, 
    1618, 
    1619, 
    1620, 
    1621, 
    1624, 
    1626, 
    1627, 
    1628, 
    1629, 
    1632, 
    1634, 
    1635, 
    1636, 
    1637, 
    1641, 
    1643, 
    1644, 
    1645, 
    1646, 
    1649, 
    1651, 
    1652, 
    1653, 
    1654, 
    1658, 
    1660, 
    1661, 
    1662, 
    1663, 
    1668, 
    1670, 
    1671, 
    1672, 
    1673, 
    1679, 
    1681, 
    1682, 
    1683, 
    1684, 
    1686, 
    1688, 
    1689, 
    1690, 
    1691, 
    1694, 
    1696, 
    1697, 
    1698, 
    1699, 
    1702, 
    1704, 
    1705, 
    1706, 
    1707, 
    1711, 
    1713, 
    1714, 
    1715, 
    1716, 
    1719, 
    1721, 
    1722, 
    1723, 
    1724, 
    1727, 
    1729, 
    1730, 
    1731, 
    1732, 
    1736, 
    1738, 
    1739, 
    1740, 
    1741, 
    1744, 
    1746, 
    1747, 
    1748, 
    1749, 
    1752, 
    1754, 
    1755, 
    1756, 
    1757, 
    1764, 
    1765, 
    1767
  ], 
  "node_row_ptr": [
    0, 
    1, 
    2, 
    3, 
    4, 
    5, 
    6, 
    7, 
    10, 
    11, 
    12, 
    13, 
    14, 
    15, 
    16, 
    17, 
    18, 
    21, 
    22, 
    23, 
    24, 
    25, 
    26, 
    27, 
    30, 
    31, 
    32, 
    33, 
    34, 
    35, 
    36, 
    37, 
    40, 
    41, 
    42, 
    43, 
    44, 
    45, 
    46, 
    47, 
    50, 
    51, 
    52, 
    53, 
    54, 
    55, 
    56, 
    57, 
    60, 
    61, 
    62, 
    63, 
    64, 
    65, 
    66, 
    67, 
    68, 
    71, 
    72, 
    73, 
    74, 
    75, 
    76, 
    77, 
    78, 
    81, 
    82, 
    83, 
    84, 
    85, 
    86, 
    87, 
    88, 
    89, 
    92, 
    93, 
    94, 
    95, 
    96, 
    97, 
    98, 
    99, 
    100, 
    101, 
    104, 
    105, 
    106, 
    107, 
    108, 
    109, 
    110, 
    111, 
    112, 
    115, 
    116, 
    117, 
    118, 
    119, 
    120, 
    121, 
    122, 
    125, 
    126, 
    127, 
    128, 
    129, 
    130, 
    131, 
    132, 
    133, 
    136, 
    137, 
    138, 
    139, 
    140, 
    141, 
    142, 
    143, 
    144, 
    145, 
    148, 
    149, 
    150, 
    151, 
    152, 
    153, 
    154, 
    155, 
    156, 
    157, 
    160, 
    161, 
    162, 
    163, 
    164, 
    165, 
    166, 
    169, 
    170, 
    171, 
    172, 
    173, 
    174, 
    175, 
    176, 
    179, 
    180, 
    181, 
    182, 
    183, 
    184, 
    185, 
    186, 
    189, 
    190, 
    191, 
    192, 
    193, 
    194, 
    195, 
    196, 
    199, 
    200, 
    201, 
    202, 
    203, 
    204, 
    205, 
    206, 
    207, 
    210, 
    211, 
    212, 
    213, 
    214, 
    215, 
    216, 
    217, 
    220, 
    221, 
    222, 
    223, 
    224, 
    225, 
    226, 
    227, 
    228, 
    231, 
    232, 
    233, 
    234, 
    235, 
    236, 
    237, 
    238, 
    239, 
    240, 
    243, 
    244, 
    245, 
    246, 
    247, 
    248, 
    249, 
    250, 
    251, 
    254, 
    255, 
    256, 
    257, 
    258, 
    259, 
    260, 
    261, 
    264, 
    265, 
    266, 
    267, 
    268, 
    269, 
    270, 
    271, 
    272, 
    275, 
    276, 
    277, 
    278, 
    279, 
    280, 
    281, 
    282, 
    283, 
    284, 
    287, 
    288, 
    289, 
    290, 
    291, 
    292, 
    293, 
    294, 
    295, 
    298, 
    299, 
    300, 
    301, 
    302, 
    303, 
    304, 
    305, 
    308, 
    309, 
    310, 
    311, 
    312, 
    313, 
    314, 
    315, 
    318, 
    319, 
    320, 
    321, 
    322, 
    323, 
    324, 
    325, 
    328, 
    329, 
    330, 
    331, 
    332, 
    333, 
    334, 
    335, 
    336, 
    339, 
    340, 
    341, 
    342, 
    343, 
    344, 
    345, 
    346, 
    349, 
    350, 
    351, 
    352, 
    353, 
    354, 
    355, 
    356, 
    357, 
    360, 
    361, 
    362, 
    363, 
    364, 
    365, 
    366, 
    367, 
    368, 
    369, 
    372, 
    373, 
    374, 
    375, 
    376, 
    377, 
    378, 
    379, 
    380, 
    383, 
    384, 
    385, 
    386, 
    387, 
    388, 
    389, 
    390, 
    393, 
    394, 
    395, 
    396, 
    397, 
    398, 
    399, 
    400, 
    401, 
    404, 
    405, 
    406, 
    407, 
    408, 
    409, 
    410, 
    411, 
    412, 
    413, 
    416, 
    417, 
    418, 
    419, 
    420, 
    421, 
    422, 
    423, 
    424, 
    427, 
    428, 
    429, 
    430, 
    431, 
    432, 
    433, 
    434, 
    437, 
    438, 
    439, 
    440, 
    441, 
    442, 
    443, 
    444, 
    447, 
    448, 
    449, 
    450, 
    451, 
    452, 
    453, 
    454, 
    457, 
    458, 
    459, 
    460, 
    461, 
    462, 
    463, 
    464, 
    465, 
    468, 
    469, 
    470, 
    471, 
    472, 
    473, 
    474, 
    475, 
    478, 
    479, 
    480, 
    481, 
    482, 
    483, 
    484, 
    485, 
    486, 
    489, 
    490, 
    491, 
    492, 
    493, 
    494, 
    495, 
    496, 
    497, 
    498, 
    501, 
    502, 
    503, 
    504, 
    505, 
    506, 
    507, 
    508, 
    509, 
    510, 
    513, 
    514, 
    515, 
    516, 
    517, 
    518, 
    519, 
    522, 
    523, 
    524, 
    525, 
    526, 
    527, 
    528, 
    529, 
    532, 
    533, 
    534, 
    535, 
    536, 
    537, 
    538, 
    539, 
    540, 
    543, 
    544, 
    545, 
    546, 
    547, 
    548, 
    549, 
    550, 
    551, 
    552, 
    555, 
    556, 
    557, 
    558, 
    559, 
    560, 
    561, 
    562, 
    563, 
    566, 
    567, 
    568, 
    569, 
    570, 
    571, 
    572, 
    573, 
    576, 
    577, 
    578, 
    579, 
    580, 
    581, 
    582, 
    583, 
    586, 
    587, 
    588, 
    589, 
    590, 
    591, 
    592, 
    593, 
    596, 
    597, 
    598, 
    599, 
    600, 
    601, 
    602, 
    603, 
    604, 
    607, 
    608, 
    609, 
    610, 
    611, 
    612, 
    613, 
    614, 
    617, 
    618, 
    619, 
    620, 
    621, 
    622, 
    623, 
    624, 
    625, 
    628, 
    629, 
    630, 
    631, 
    632, 
    633, 
    634, 
    635, 
    636, 
    637, 
    640, 
    641, 
    642, 
    643, 
    644, 
    645, 
    646, 
    647, 
    648, 
    651, 
    652, 
    653, 
    654, 
    655, 
    656, 
    657, 
    658, 
    661, 
    662, 
    663, 
    664, 
    665, 
    666, 
    667, 
    668, 
    669, 
    672, 
    673, 
    674, 
    675, 
    676, 
    677, 
    678, 
    679, 
    680, 
    681, 
    684, 
    685, 
    686, 
    687, 
    688, 
    689, 
    690, 
    691, 
    692, 
    695, 
    696, 
    697, 
    698, 
    699, 
    700, 
    701, 
    702, 
    705, 
    706, 
    707, 
    708, 
    709, 
    710, 
    711, 
    712, 
    715, 
    716, 
    717, 
    718, 
    719, 
    720, 
    721, 
    722, 
    725, 
    726, 
    727, 
    728, 
    729, 
    730, 
    731, 
    732, 
    733, 
    736, 
    737, 
    738, 
    739, 
    740, 
    741, 
    742, 
    743, 
    746, 
    747, 
    748, 
    749, 
    750, 
    751, 
    752, 
    753, 
    754, 
    757, 
    758, 
    759, 
    760, 
    761, 
    762, 
    763, 
    764, 
    765, 
    766, 
    769, 
    770, 
    771, 
    772, 
    773, 
    774, 
    775, 
    776, 
    777, 
    780, 
    781, 
    782, 
    783, 
    784, 
    785, 
    786, 
    787, 
    790, 
    791, 
    792, 
    793, 
    794, 
    795, 
    796, 
    797, 
    798, 
    801, 
    802, 
    803, 
    804, 
    805, 
    806, 
    807, 
    808, 
    809, 
    810, 
    813, 
    814, 
    815, 
    816, 
    817, 
    818, 
    819, 
    820, 
    821, 
    824, 
    825, 
    826, 
    827, 
    828, 
    829, 
    830, 
    831, 
    834, 
    835, 
    836, 
    837, 
    838, 
    839, 
    840, 
    841, 
    844, 
    845, 
    846, 
    847, 
    848, 
    849, 
    850, 
    851, 
    854, 
    855, 
    856, 
    857, 
    858, 
    859, 
    860, 
    861, 
    862, 
    865, 
    866, 
    867, 
    868, 
    869, 
    870, 
    871, 
    872, 
    875, 
    876, 
    877, 
    878, 
    879, 
    880, 
    881, 
    882, 
    883, 
    886, 
    887, 
    888, 
    889, 
    890, 
    891, 
    892, 
    893, 
    894, 
    895, 
    898, 
    899, 
    900, 
    901, 
    902, 
    903, 
    904, 
    905, 
    906, 
    909, 
    910, 
    911, 
    912, 
    913, 
    914, 
    915, 
    916, 
    919, 
    920, 
    921, 
    922, 
    923, 
    924, 
    925, 
    926, 
    927, 
    930, 
    931, 
    932, 
    933, 
    934, 
    935, 
    936, 
    937, 
    938, 
    939, 
    942, 
    943, 
    944, 
    945, 
    946, 
    947, 
    948, 
    949, 
    950, 
    953, 
    954, 
    955, 
    956, 
    957, 
    958, 
    959, 
    960, 
    963, 
    964, 
    965, 
    966, 
    967, 
    968, 
    969, 
    970, 
    973, 
    974, 
    975, 
    976, 
    977, 
    978, 
    979, 
    980, 
    983, 
    984, 
    985, 
    986, 
    987, 
    988, 
    989, 
    990, 
    991, 
    994, 
    995, 
    996, 
    997, 
    998, 
    999, 
    1000, 
    1001, 
    1004, 
    1005, 
    1006, 
    1007, 
    1008, 
    1009, 
    1010, 
    1011, 
    1012, 
    1015, 
    1016, 
    1017, 
    1018, 
    1019, 
    1020, 
    1021, 
    1022, 
    1023, 
    1024, 
    1027, 
    1028, 
    1029, 
    1030, 
    1031, 
    1032, 
    1033, 
    1034, 
    1035, 
    1038, 
    1039, 
    1040, 
    1041, 
    1042, 
    1043, 
    1044, 
    1045, 
    1048, 
    1049, 
    1050, 
    1051, 
    1052, 
    1053, 
    1054, 
    1055, 
    1056, 
    1059, 
    1060, 
    1061, 
    1062, 
    1063, 
    1064, 
    1065, 
    1066, 
    1067, 
    1068, 
    1071, 
    1072, 
    1073, 
    1074, 
    1075, 
    1076, 
    1077, 
    1078, 
    1079, 
    1082, 
    1083, 
    1084, 
    1085, 
    1086, 
    1087, 
    1088, 
    1089, 
    1092, 
    1093, 
    1094, 
    1095, 
    1096, 
    1097, 
    1098, 
    1099, 
    1102, 
    1103, 
    1104, 
    1105, 
    1106, 
    1107, 
    1108, 
    1109, 
    1112, 
    1113, 
    1114, 
    1115, 
    1116, 
    1117, 
    1118, 
    1119, 
    1120, 
    1123, 
    1124, 
    1125, 
    1126, 
    1127, 
    1128, 
    1129, 
    1130, 
    1133, 
    1134, 
    1135, 
    1136, 
    1137, 
    1138, 
    1139, 
    1140, 
    1141, 
    1144, 
    1145, 
    1146, 
    1147, 
    1148, 
    1149, 
    1150, 
    1151, 
    1152, 
    1153, 
    1156, 
    1157, 
    1158, 
    1159, 
    1160, 
    1161, 
    1162, 
    1163, 
    1164, 
    1167, 
    1168, 
    1169, 
    1170, 
    1171, 
    1172, 
    1173, 
    1174, 
    1177, 
    1178, 
    1179, 
    1180, 
    1181, 
    1182, 
    1183, 
    1184, 
    1185, 
    1188, 
    1189, 
    1190, 
    1191, 
    1192, 
    1193, 
    1194, 
    1195, 
    1196, 
    1197, 
    1200, 
    1201, 
    1202, 
    1203, 
    1204, 
    1205, 
    1206, 
    1207, 
    1208, 
    1211, 
    1212, 
    1213, 
    1214, 
    1215, 
    1216, 
    1217, 
    1218, 
    1221, 
    1222, 
    1223, 
    1224, 
    1225, 
    1226, 
    1227, 
    1228, 
    1231, 
    1232, 
    1233, 
    1234, 
    1235, 
    1236, 
    1237, 
    1238, 
    1241, 
    1242, 
    1243, 
    1244, 
    1245, 
    1246, 
    1247, 
    1248, 
    1249, 
    1252, 
    1253, 
    1254, 
    1255, 
    1256, 
    1257, 
    1258, 
    1259, 
    1262, 
    1263, 
    1264, 
    1265, 
    1266, 
    1267, 
    1268, 
    1269, 
    1270, 
    1273, 
    1274, 
    1275, 
    1276, 
    1277, 
    1278, 
    1279, 
    1280, 
    1281, 
    1282, 
    1285, 
    1286, 
    1287, 
    1288, 
    1289, 
    1290, 
    1291, 
    1292, 
    1293, 
    1296, 
    1297, 
    1298, 
    1299, 
    1300, 
    1301, 
    1302, 
    1303, 
    1306, 
    1307, 
    1308, 
    1309, 
    1310, 
    1311, 
    1312, 
    1313, 
    1314, 
    1317, 
    1318, 
    1319, 
    1320, 
    1321, 
    1322, 
    1323, 
    1324, 
    1325, 
    1326, 
    1329, 
    1330, 
    1331, 
    1332, 
    1333, 
    1334, 
    1335, 
    1336, 
    1337, 
    1340, 
    1341, 
    1342, 
    1343, 
    1344, 
    1345, 
    1346, 
    1347, 
    1350, 
    1351, 
    1352, 
    1353, 
    1354, 
    1355, 
    1356, 
    1357, 
    1360, 
    1361, 
    1362, 
    1363, 
    1364, 
    1365, 
    1366, 
    1367, 
    1370, 
    1371, 
    1372, 
    1373, 
    1374, 
    1375, 
    1376, 
    1377, 
    1378, 
    1381, 
    1382, 
    1383, 
    1384, 
    1385, 
    1386, 
    1387, 
    1388, 
    1391, 
    1392, 
    1393, 
    1394, 
    1395, 
    1396, 
    1397, 
    1398, 
    1399, 
    1402, 
    1403, 
    1404, 
    1405, 
    1406, 
    1407, 
    1408, 
    1409, 
    1410, 
    1411, 
    1414, 
    1415, 
    1416, 
    1417, 
    1418, 
    1419, 
    1420, 
    1421, 
    1422, 
    1425, 
    1426, 
    1427, 
    1428, 
    1429, 
    1430, 
    1431, 
    1432, 
    1435, 
    1436, 
    1437, 
    1438, 
    1439, 
    1440, 
    1441, 
    1442, 
    1443, 
    1446, 
    1447, 
    1448, 
    1449, 
    1450, 
    1451, 
    1452, 
    1453, 
    1454, 
    1455, 
    1458, 
    1459, 
    1460, 
    1461, 
    1462, 
    1463, 
    1464, 
    1465, 
    1466, 
    1469, 
    1470, 
    1471, 
    1472, 
    1473, 
    1474, 
    1475, 
    1476, 
    1479, 
    1480, 
    1481, 
    1482, 
    1483, 
    1484, 
    1485, 
    1486, 
    1489, 
    1490, 
    1491, 
    1492, 
    1493, 
    1494, 
    1495, 
    1496, 
    1499, 
    1500, 
    1501, 
    1502, 
    1503, 
    1504, 
    1505, 
    1506, 
    1507, 
    1510, 
    1511, 
    1512, 
    1513, 
    1514, 
    1515, 
    1516, 
    1517, 
    1520, 
    1521, 
    1522, 
    1523, 
    1524, 
    1525, 
    1526, 
    1527, 
    1528, 
    1531, 
    1532, 
    1533, 
    1534, 
    1535, 
    1536, 
    1537, 
    1538, 
    1539, 
    1540, 
    1543, 
    1544, 
    1545, 
    1546, 
    1547, 
    1548, 
    1549, 
    1550, 
    1551, 
    1554, 
    1555, 
    1556, 
    1557, 
    1558, 
    1559, 
    1560, 
    1561, 
    1564, 
    1565, 
    1566, 
    1567, 
    1568, 
    1569, 
    1570, 
    1571, 
    1572, 
    1575, 
    1576, 
    1577, 
    1578, 
    1579, 
    1580, 
    1581, 
    1582, 
    1583, 
    1584, 
    1587, 
    1588, 
    1589, 
    1590, 
    1591, 
    1592, 
    1593, 
    1594, 
    1595, 
    1598, 
    1599, 
    1600, 
    1601, 
    1602, 
    1603, 
    1604, 
    1605, 
    1608, 
    1609, 
    1610, 
    1611, 
    1612, 
    1613, 
    1614, 
    1615, 
    1618, 
    1619, 
    1620, 
    1621, 
    1622, 
    1623, 
    1624, 
    1625, 
    1628, 
    1629, 
    1630, 
    1631, 
    1632, 
    1633, 
    1634, 
    1635, 
    1636, 
    1639, 
    1640, 
    1641, 
    1642, 
    1643, 
    1644, 
    1645, 
    1646, 
    1649, 
    1650, 
    1651, 
    1652, 
    1653, 
    1654, 
    1655, 
    1656, 
    1657, 
    1660, 
    1661, 
    1662, 
    1663, 
    1664, 
    1665, 
    1666, 
    1667, 
    1668, 
    1669, 
    1672, 
    1673, 
    1674, 
    1675, 
    1676, 
    1677, 
    1678, 
    1679, 
    1680, 
    1683, 
    1684, 
    1685, 
    1686, 
    1687, 
    1688, 
    1689, 
    1690, 
    1693, 
    1694, 
    1695, 
    1696, 
    1697, 
    1698, 
    1699, 
    1700, 
    1701, 
    1704, 
    1705, 
    1706, 
    1707, 
    1708, 
    1709, 
    1710, 
    1711, 
    1712, 
    1713, 
    1716, 
    1717, 
    1718, 
    1719, 
    1720, 
    1721, 
    1722, 
    1723, 
    1724, 
    1727, 
    1728, 
    1729, 
    1730, 
    1731, 
    1732, 
    1733, 
    1734, 
    1737, 
    1738, 
    1739, 
    1740, 
    1741, 
    1742, 
    1743, 
    1744, 
    1747, 
    1748, 
    1749, 
    1750, 
    1751, 
    1752, 
    1753, 
    1754, 
    1757, 
    1758, 
    1759, 
    1760, 
    1761, 
    1762, 
    1763, 
    1764, 
    1765, 
    1768, 
    1769, 
    1770, 
    1771, 
    1772, 
    1773, 
    1774, 
    1775, 
    1778, 
    1779, 
    1780, 
    1781, 
    1782, 
    1783, 
    1784, 
    1785, 
    1786, 
    1789, 
    1790, 
    1791, 
    1792, 
    1793, 
    1794, 
    1795, 
    1796, 
    1797, 
    1798, 
    1801, 
    1802, 
    1803, 
    1804, 
    1805, 
    1806, 
    1807, 
    1808, 
    1809, 
    1812, 
    1813, 
    1814, 
    1815, 
    1816, 
    1817, 
    1818, 
    1819, 
    1822, 
    1823, 
    1824, 
    1825, 
    1826, 
    1827, 
    1828, 
    1829, 
    1830, 
    1833, 
    1834, 
    1835, 
    1836, 
    1837, 
    1838, 
    1839, 
    1840, 
    1841, 
    1842, 
    1845, 
    1846, 
    1847, 
    1848, 
    1849, 
    1850, 
    1851, 
    1852, 
    1853, 
    1856, 
    1857, 
    1858, 
    1859, 
    1860, 
    1861, 
    1862, 
    1863, 
    1866, 
    1867, 
    1868, 
    1869, 
    1870, 
    1871, 
    1872, 
    1873, 
    1876, 
    1877, 
    1878, 
    1879, 
    1880, 
    1881, 
    1882, 
    1883, 
    1886, 
    1887, 
    1888, 
    1889, 
    1890, 
    1891, 
    1892, 
    1893, 
    1894, 
    1897, 
    1898, 
    1899, 
    1900, 
    1901, 
    1902, 
    1903, 
    1904, 
    1907, 
    1908, 
    1909, 
    1910, 
    1911, 
    1912, 
    1913, 
    1914, 
    1915, 
    1918, 
    1919, 
    1920, 
    1921, 
    1922, 
    1923, 
    1924, 
    1925, 
    1926, 
    1927, 
    1930, 
    1931, 
    1932, 
    1933, 
    1934, 
    1935, 
    1936, 
    1937, 
    1938, 
    1941, 
    1942, 
    1943, 
    1944, 
    1945, 
    1946, 
    1947, 
    1948, 
    1951, 
    1952, 
    1953, 
    1954, 
    1955, 
    1956, 
    1957, 
    1958, 
    1959, 
    1962, 
    1963, 
    1964, 
    1965, 
    1966, 
    1967, 
    1968, 
    1969, 
    1970, 
    1971, 
    1974, 
    1975, 
    1976, 
    1977, 
    1978, 
    1979, 
    1980, 
    1981, 
    1982, 
    1985, 
    1986, 
    1987, 
    1988, 
    1989, 
    1990, 
    1991, 
    1992, 
    1995, 
    1996, 
    1997, 
    1998, 
    1999, 
    2000, 
    2001, 
    2002, 
    2005, 
    2006, 
    2007, 
    2008, 
    2009, 
    2010, 
    2011, 
    2012, 
    2015, 
    2016, 
    2017, 
    2018, 
    2019, 
    2020, 
    2021, 
    2022, 
    2023, 
    2026, 
    2027, 
    2028, 
    2029, 
    2030, 
    2031, 
    2032, 
    2033, 
    2036, 
    2037, 
    2038, 
    2039, 
    2040, 
    2041, 
    2042, 
    2043, 
    2044, 
    2047, 
    2048, 
    2049, 
    2050, 
    2051, 
    2052, 
    2053, 
    2054, 
    2055, 
    2056, 
    2059, 
    2060, 
    2061, 
    2062, 
    2063, 
    2064, 
    2065, 
    2066, 
    2067, 
    2068, 
    2069, 
    2072, 
    2073, 
    2074, 
    2075, 
    2076, 
    2077, 
    2078, 
    2081, 
    2082, 
    2083, 
    2084, 
    2085, 
    2086, 
    2087, 
    2088, 
    2091, 
    2092, 
    2093, 
    2094, 
    2095, 
    2096, 
    2097, 
    2098, 
    2101, 
    2102, 
    2103, 
    2104, 
    2105, 
    2106, 
    2107, 
    2108, 
    2109, 
    2112, 
    2113, 
    2114, 
    2115, 
    2116, 
    2117, 
    2118, 
    2119, 
    2122, 
    2123, 
    2124, 
    2125, 
    2126, 
    2127, 
    2128, 
    2129, 
    2132, 
    2133, 
    2134, 
    2135, 
    2136, 
    2137, 
    2138, 
    2139, 
    2140, 
    2143, 
    2144, 
    2145, 
    2146, 
    2147, 
    2148, 
    2149, 
    2150, 
    2153, 
    2154, 
    2155, 
    2156, 
    2157, 
    2158, 
    2159, 
    2160, 
    2163, 
    2164, 
    2165, 
    2166, 
    2168, 
    2169, 
    2170, 
    2171, 
    2172, 
    2173, 
    2174
  ], 
  "heads": [[1768, 0, 0]], 
  "attrs": {"mxnet_version": ["int", 1100]}
}